models/PNet.pth (torch, 47294 bytes, 12 tensors)

weight f4 [10, 3, 3, 3]
00000000: 8950 3e3e 17ff 7b3e f68e 3a3e 4ab2 243c
00000010: 9006 13bd 2733 ff3a 8ce1 273e 5b3a 11bd
00000020: 40bf 25bd 26b8 8dbe c261 98be 39a2 84be
00000030: 48d8 863d 5a03 0dbf 2b7f 6abd 05f7 94bd
00000040: 3287 bdbe ef62 b13d 8bb5 8f3c 3dd4 0bbe
00000050: dc9c 843e 7b0f 543e 5088 eabd 25e9 b93e
00000060: eb51 5c3e acc8 bfbe c0a8 213e af78 92bb
00000070: 4f9d d3be 6c85 213e d782 8e3c 23e6 0e3e
00000080: f73c 6c3e 15cf c1bd 48b4 fdbd 4fb3 743d
00000090: 3037 fe3e 4e21 a1be 3497 c73e 834f 8fbe
000000a0: 7df8 873d 499c 5bbe e067 abbd 6a3c 97bd
000000b0: d996 f5bc 2070 833e e05b f5be e664 4f3e
000000c0: d940 f93d 6457 5d3c c86d ffbd cb6e 073e
000000d0: 96a1 d33b 81c8 c8bd 0a13 413e 39b4 413e
000000e0: dd2f 81bd 168f aa3d 5dcd d33b 3626 d2bd
000000f0: 2330 3cbe e5f8 d9bd 6e04 063d bff5 d23d
00000100: cf66 d13e a45b 80be 77a7 893d bd75 cfbd
00000110: 4dd1 a6be a5a2 223d 334b 4fbe c5b4 31be
00000120: 3ee1 283e 598a 4b3e fdb4 ed3d c1d7 c93e
00000130: 3109 df3d 05dc 79be e65c b13d 5a3c b5be
00000140: 5dda 78be e330 2dbe e4b4 903e ca09 0ebe
00000150: 3d3c 7a3d c9c7 963e ff53 b23e fb7c b0be
00000160: c448 32be 501f 36be 4ddd cc3d 2137 913e
00000170: 0263 d73e f364 abbd 7020 d43d 0e6d 633e
00000180: 449b f13c b37e 433e a1ec af3d 4d62 353d
00000190: 9515 e1be 4c90 a2be b525 b23d 09f1 02bf
000001a0: 87f7 e1be d94f 8e3e b4f5 893d 3374 5f3d
000001b0: 37ef 683e 1e3f 11be a156 e5be dc26 06be
000001c0: 1759 30be ae1a 99be 3fb2 4c3e 4bf4 4f3c
000001d0: cb08 a33d b3a4 c63e 4310 af3d 5d2b 02be
000001e0: 8f30 873e 008d 323e 7618 b93c c7ea 3e3e
000001f0: eefc b8bb 450c 65bd 6694 1dbf 09a1 703d
00000200: ebed 123f 31a0 06be 58c3 86b9 7924 8c3e
00000210: 30e0 c2be af7c 8c3a fb5c cbbc 534b 763e
00000220: 3b36 53bd 0f69 16be 5fb8 613e 6ac0 33bd
00000230: 26ab 91be 5759 ae3d 2596 313e 4b14 05be
00000240: 657d 8b3b 1b70 d8bd 67a0 b4bd 1336 803e
00000250: bf0a 17bd 5666 81be e853 403e 7f7e 0f3e
00000260: 3eee 11be 5276 4d3e 4e47 a9bc 3492 8ebe
00000270: afd7 933e cf85 bf3a 6e90 9abe 08ec 553e
00000280: 534c 713c 4d42 08be 062b b33e ba98 7dbd
00000290: e814 de3c 03b3 60be db61 54be da4a 9dbd
000002a0: 3cbe d33d a088 3b3e f986 153e a911 2a3c
000002b0: 13f9 873e 0f36 923d b44c 29be 838b 1cbf
000002c0: 33f9 b8be 0607 1b3e c69c 833e 18cb 0cbd
000002d0: 8e3d 73be 083f 903e caaa 403e 50b2 b7bd
000002e0: 5d47 19be 057f c6be 2d14 8c3d 9ae8 7a3e
000002f0: 73ab bb3e 9a0d a8bc 2b6d 8d3e 7611 683d
00000300: 1205 e73d c506 21bd 366f a43d fc2a 86bd
00000310: 7d60 a8be 6153 a7bd f263 513e f325 043e
00000320: 12ee 6d3e db43 103d 4b81 bfbb c23e 05be
00000330: a801 70be 2739 7abe 2558 2dbc 8665 ab3e
00000340: 69c0 d63e bc2c 2d3e 1ff7 59be f356 25bb
00000350: b02f 343e e71d 2ebe 1176 cebe 6dde 99be
00000360: 4b45 073d 2209 8abd 241f a6bd cb40 033d
00000370: eba8 55bd f022 2c3e aa4b 55bd 482e 2d3e
00000380: 097e 81be 7fa4 56bd 19a0 bebd ad1b 10be
00000390: 1aac 123d bccf 6b3d c28a 6a3d 3d5f ed3d
000003a0: 15cf 263d c5f0 343e 4aff b0be 0354 ebbe
000003b0: 9545 77be 0aca d8bd 40e0 113d b9ff fcbd
000003c0: 4190 933e e5ea 9f3e b863 fb3e 5013 5ebe
000003d0: 523d e53c f0ec 083e 2a0c 13bd 3ad9 29be
000003e0: 456d 303e 5d3f 14be 89e6 cbbc 1bd6 943e
000003f0: 5b2e b4bd 6e20 63bc 3f22 513e 8f59 95be
0.18585409 0.24609028 0.18218598 0.010052273 -0.03589493 0.0019470201 0.16394633 -0.035456043
-0.040465593 -0.27679557 -0.29762083 -0.25905016 0.06584221 -0.5508324 -0.057250183 -0.07273678
-0.37017208 0.08661448 0.017542621 -0.13655181 0.25900924 0.2070903 -0.11451781 0.36310688
0.21515624 -0.37457788 0.1578703 -0.004469953 -0.41330954 0.15773553 0.017396374 0.13954978
0.23070131 -0.09463326 -0.123879015 0.059741315 0.4965148 -0.31470722 0.38982546 -0.2799035
0.06639192 -0.21446337 -0.08369422 -0.0738457 -0.029979156 0.25671482 -0.47921658 0.20253333
0.12170572 0.013509605 -0.12472111 0.13225858 0.0064584715 -0.09803868 0.18854919 0.18916406
-0.06307957 0.08328073 0.00646369 -0.102611944 -0.18377738 -0.10643176 0.03271907 0.103007786
0.4089875 -0.25069916 0.067213945 -0.10129879 -0.3258156 0.03970589 -0.2024353 -0.17354114
0.16492173 0.19876994 0.116067864 0.3942242 0.10890425 -0.24400337 0.08660297 -0.35397607
-0.24302049 -0.1691318 0.2826301 -0.13870922 0.061092604 0.294493 0.3482971 -0.34470353
-0.1741057 -0.17785382 0.10003147 0.28362373 0.42067724 -0.08368864 0.103577495 0.2220957
0.029492982 0.190913 0.08590055 0.0442832 -0.43961778 -0.31750715 0.08698598 -0.5114904
-0.4413416 0.27795294 0.06736317 0.054554176 0.22747503 -0.14184234 -0.44792655 -0.13100761
-0.17221485 -0.29903167 0.1998987 0.012692521 0.079606615 0.3879753 0.085480236 -0.12711854
0.26404235 0.174366 0.022594672 0.18644248 -0.005645386 -0.055919904 -0.61554563 0.058747325
0.57394284 -0.13147046 -0.00025704014 0.27371576 -0.38061666 0.0010718311 -0.02482461 0.24052171
-0.05156539 -0.14688514 0.22042988 -0.043884672 -0.28450888 0.08513134 0.17342432 -0.12996022
0.0042568916 -0.105682574 -0.08819657 0.25041255 -0.036875483 -0.2527339 0.18782008 0.14013098
-0.14251038 0.20064667 -0.020663884 -0.2784592 0.2887549 0.0014612022 -0.30188316 0.2089082
0.01472767 -0.13306542 0.34993762 -0.06191323 0.027109578 -0.21943288 -0.20740454 -0.076802924
0.10339019 0.18313837 0.14602269 0.010380187 0.26557216 0.07139217 -0.16533166 -0.6115038
-0.36127624 0.15139398 0.25705546 -0.034373373 -0.2375395 0.2817309 0.18815151 -0.08969557
-0.14968629 -0.38768783 0.06839786 0.24502793 0.36654243 -0.020514298 0.2762235 0.056657277
0.11280264 -0.039313097 0.08029024 -0.06551167 -0.32886115 -0.081702 0.20448282 0.12905101
0.23235348 0.035220962 -0.0058442703 -0.13012221 -0.23438132 -0.24435864 -0.010580097 0.33475894
0.41943672 0.16911596 -0.21285675 -0.0025228828 0.17596316 -0.17003594 -0.40324453 -0.3005251
0.033025067 -0.06740023 -0.08111408 0.032044213 -0.052163046 0.16810203 -0.052074112 0.16912186
-0.2529147 -0.05240297 -0.0930788 -0.14073057 0.03580866 0.057571158 0.057261236 0.11590431
0.040724833 0.17669971 -0.3456977 -0.45962533 -0.24147637 -0.10585411 0.035614252 -0.12353463
0.28820994 0.31233898 0.49099517 -0.21687055 0.027983341 0.13371634 -0.035900272 -0.16586772
0.17229183 -0.14477296 -0.024890201 0.290696 -0.08797904 -0.013862712 0.2042322 -0.2916989

bias f4 [10]
00000000: ff49 f7be 8c8a 19bd b17c c9bd 489a a73e
00000010: f977 6dbb 1143 a5bb 424b bcbc 4e53 92bc
00000020: 6199 a53d 2296 febc
-0.48298642 -0.037485644 -0.09838236 0.32734895 -0.003623484 -0.0050433953 -0.022985104 -0.017861988
0.08085895 -0.031077448

weight f4 [16, 10, 3, 3]
00000000: d987 2a3d 2d71 88bd 7a49 023d 8e06 8a3e
00000010: a789 b0bd eba3 eabd d995 a0bd a241 30bd
00000020: b1d2 6b3d 7f6a 06bf 812b e6be 5d6d 07be
00000030: 5eaa 27be c10b 8c3c a828 ca3d 7e23 dfbd
00000040: f027 74be a805 d93d 606c 36be 5147 dd3b
00000050: 4f62 5dbc 3214 d9be b391 9f3d c4c3 2cbd
00000060: 479b 56be f704 15be 9f42 0fbd 7ac6 a83e
00000070: 61e1 08bd 1a72 ee3c 77be e1bd 8b50 83bd
00000080: 28a6 91bd abbe 523b 0a99 15bd ab01 f5be
00000090: e475 d9bc 4aa2 7ebb eae9 083e f913 1dbe
000000a0: 35c9 80bd bb0c 063e 2e3a b5bd df2c a6bd
000000b0: 612e 09bd 887a 15bf 470c b1be 78a5 8c3d
000000c0: c670 063c 40d4 023e 1811 5ebe 467d 263c
000000d0: 0b8c babd 266c cdbd 0fbe bebe b33e 283d
000000e0: 1654 2b3d e271 afbe 680c 543e 83f1 8cbd
000000f0: bd0a 55bc 33cc f0bd 96a2 c1bb a4e0 a4be
00000100: 0b10 753d ddb2 7c3e 6dcd c7bc fce8 023e
00000110: e71a 333d 712a bb3d a8b3 5c3e d214 813e
00000120: b4d0 713e daf9 a3bd b875 69be 2ace e23d
00000130: 1883 e33c ff81 6fbd 47d4 233e b4af 813d
00000140: 980d 763e bbbc 22be 1d3b 0ebe a5df 2fbb
00000150: 477c 0c3e d770 7abd 10ee ad3d 7ce4 31bd
00000160: 9315 ee3d 046f e0bd 74ab 03be d0f3 053e
00000170: 2f7d 0a3d 5bb5 bebe 6c5b 32bd 9595 503b
00000180: 6fa6 30bf 5e62 4fbc 1509 c6bd c44a f53c
00000190: 9543 523e fd83 313e 2012 9abe 5ea3 20be
000001a0: 7f12 c8bc 76cb 34bc 0908 913d 6058 263c
000001b0: ec1a 23be 1ceb 8fbd 6a2a 54bd c222 a7bc
000001c0: 1645 d2bd 821d be3c bd7a 4d3e 4763 9c3d
000001d0: 0def f23d 8d96 a1be bde2 a33d 6b9a 473d
000001e0: c863 17bd d313 3bbd 7f58 23bd f404 23be
000001f0: 7197 a1bc c6b6 4c3e ae56 eabe f648 fcbc
00000200: 9a8e 813d 692e 35be b3a6 1a3e bacc 6f3d
00000210: f0e2 04bf d0f7 973e c7ae 7d3d 42f7 0ebf
00000220: 9069 44be 87ab e2bd 998b 8bbe 203e 9e3c
00000230: 115f 15bd f74a 8cbe 0dec 0b3e 3e50 de3d
00000240: bed5 c93d a875 31bb 207d d93c a1b9 483e
00000250: 39fc eabb 3a4d 053d ae91 343e d2f8 45bd
00000260: 709b fabc b616 eb3d 3495 da3c da00 ad3d
00000270: f30f 6e3e b6f8 4d3c ef41 4d3d 0947 efbb
00000280: dbfe 16bd 952c adbc 00ff ba3d d6c2 bb3e
00000290: e1c9 c93d 7d8b 3dbd 9cd7 c73d d199 2d3d
000002a0: 5ffd 69bd e982 aa3d ef38 c53c 65ac 38bf
000002b0: 05fb fbbd 9abd 36bc 60cc 14bf 811f 98be
000002c0: d463 91bd 82ad c3be a0ee 81be ea06 bcbd
000002d0: 60cd 87be ca63 1abe 7427 abbd 646a 7dbc
000002e0: 541b 49be 67c1 933d 97e2 6dbd 4243 b9be
000002f0: 1e6f 99be 1a40 25be a952 183d 4712 0a3e
00000300: 35a6 20be 1008 b23c 323d db3c 5d3a 64be
00000310: 18b3 8abd 0245 0cbe 483a 2ebe dca5 9f3d
00000320: 12e2 503e 8392 9cbe eece 9e3e 40c8 033e
00000330: c3be 24bf 23d7 64be d3fb a63d aae6 28be
00000340: 3577 d03d 13b6 22bd 8a24 9abe 523c 82bc
00000350: abad 8f3d aac4 edba 1111 8fbe 8abf a33b
00000360: c554 97be b56d efbd a661 093e 8835 11be
00000370: 2ffa 32be 8193 49bd 8aa4 ac3e 0662 3bbe
00000380: 1cd1 8ebe a59c b03d e98b 5fbc 0092 25be
00000390: ec3f 8f3e 3af5 0cbe f6c8 d8bc 866c f83e
000003a0: f3fc e3bd 5cd1 81bd 807a 8abe 714d e73d
000003b0: cb06 273e 4ed7 1dbf dc85 f1bb bdd2 b63e
000003c0: eb2d 11bf 9cfd 3739 6301 8e3e e623 e23c
000003d0: 96d4 c73c 1be2 88bd c463 9bbc 36cf 2abe
000003e0: 9f90 d83c ed42 4f3e 5c47 2d3e f530 b23c
000003f0: b765 03be 1eeb 153e a1fc 83bd e1b0 efbe
0.04163346 -0.066622116 0.031808354 0.26958126 -0.08620005 -0.11457046 -0.07841081 -0.043031342
0.057573978 -0.5250625 -0.44955066 -0.13225313 -0.16373584 0.017095448 0.09871036 -0.108954415
-0.2384336 0.10596782 -0.1781478 0.0067528863 -0.013512208 -0.4239822 0.07791462 -0.042178884
-0.20957671 -0.14552675 -0.034975644 0.32963926 -0.033418063 0.029107142 -0.110226564 -0.06411847
-0.0711177 0.0032157104 -0.036522903 -0.47852835 -0.026545472 -0.0038854056 0.13370481 -0.1533965
-0.06288377 0.13090794 -0.088489875 -0.08114027 -0.033491496 -0.5839009 -0.3457968 0.06867498
0.008205598 0.1277628 -0.21686208 0.010161703 -0.09108742 -0.10030393 -0.37254378 0.04107542
0.041828237 -0.34266573 0.20707858 -0.06882002 -0.0130030485 -0.11757698 -0.0059092743 -0.32202637
0.059829753 0.24677606 -0.024389947 0.12784189 0.043726828 0.091389544 0.21552908 0.25211197
0.2361477 -0.0800664 -0.22798812 0.11074479 0.027772471 -0.058473583 0.15998946 0.06332341
0.24028623 -0.15892307 -0.13889737 -0.0026836183 0.13719283 -0.06114277 0.084926724 -0.04343079
0.11625209 -0.109586746 -0.12858373 0.13081288 0.03381079 -0.37247738 -0.043544218 0.003182744
-0.6900396 -0.01265773 -0.09669701 0.029942878 0.20533593 0.17335506 -0.30091953 -0.1568732
-0.024422882 -0.011034837 0.07081611 0.010152906 -0.15928239 -0.070272654 -0.05179826 -0.020402316
-0.10267083 0.02320743 0.20066352 0.07636123 0.118620016 -0.31560174 0.08002231 0.04873125
-0.036960393 -0.045673203 -0.03987932 -0.15919858 -0.019725533 0.19991598 -0.45769256 -0.03079651
0.06326027 -0.17693485 0.15102653 0.05854485 -0.5190878 0.29681253 0.06193426 -0.55846035
-0.19180894 -0.110678725 -0.27254942 0.019316733 -0.036467616 -0.27400944 0.13664265 0.10855149
0.09855221 -0.0027078185 0.026548922 0.19602062 -0.0071711806 0.032544352 0.17633697 -0.048332997
-0.030591697 0.11478941 0.026682474 0.08447428 0.23248272 0.012571504 0.050111707 -0.007302169
-0.036864143 -0.021139422 0.09130669 0.36672086 0.098529585 -0.046275605 0.09757921 0.04238302
-0.0571264 0.083257504 0.024075 -0.72138053 -0.123037376 -0.011153603 -0.5812435 -0.29711536
-0.07099119 -0.38218313 -0.2537737 -0.09181006 -0.26523876 -0.15077129 -0.083571345 -0.01546726
-0.19639331 0.07214623 -0.05807742 -0.36184126 -0.29967588 -0.16137734 0.037188206 0.13483535
-0.15688403 0.02173236 0.026762579 -0.22287889 -0.06772441 -0.136982 -0.1701442 0.07795307
0.20398739 -0.3058053 0.3101725 0.12869358 -0.6435358 -0.22347693 0.081535004 -0.16494241
0.10178987 -0.03972442 -0.30106002 -0.015897904 0.070155464 -0.0018140275 -0.27942708 0.0049971985
-0.29556862 -0.11690847 0.13416156 -0.14180577 -0.1747825 -0.049212936 0.33719283 -0.18299112
-0.27893913 0.086236276 -0.013644197 -0.16168976 0.27978456 -0.13765422 -0.026463013 0.48520297
-0.111322306 -0.0633876 -0.27046585 0.11294068 0.16311185 -0.61656654 -0.0073706936 0.35707656
-0.5671069 0.00017546717 0.27735433 0.027605008 0.024393361 -0.06683751 -0.01896847 -0.16680607
0.026436148 0.20240374 0.16921753 0.02175186 -0.1283177 0.14640471 -0.064446695 -0.46814635

bias f4 [16]
00000000: dd0a 703e 32aa 3f3e 6029 c63e e942 b03d
00000010: 85c6 d53e a5c1 e73d a9e9 95bd f238 693e
00000020: 7748 cebd fbd3 2a3e 8308 b53e 4f1a 3d3e
00000030: 0089 663e b6fb 283e 7b6d 883d 7546 873e
0.23441644 0.18717268 0.38703442 0.08606512 0.4175302 0.11316232 -0.07319958 0.22775629
-0.10072415 0.16682427 0.35358056 0.18467067 0.22513199 0.1650227 0.06661507 0.26420942

weight f4 [32, 16, 3, 3]
00000000: a67a 863d 756c 153e ca44 093e 9d8e 153e
00000010: 6048 353e 3fb2 ac3c 80e5 713e 9be9 fcbc
00000020: a5ff a1be 902b 04be ee26 2cbd 7e77 42bc
00000030: 710a 25bd 8688 febb 7db2 64bd 6c32 c5be
00000040: 4cc3 c5bd 29cf 0abe c2c8 dbbd 13e2 26be
00000050: 1d50 e8bd d87c 063e 693e 18be d49a 16bd
00000060: c044 c03e 7752 043e 519c 85bb 3c53 80bd
00000070: aa2e a13d 4b82 f83d 68bb babd 6fe4 183d
00000080: b462 d03d 0887 08be 75ff 0b3e 0414 d03e
00000090: a267 52be ed15 74bd bac8 8a3d f7dc 2abd
000000a0: 3058 f33d 1605 133e ba2d 31bc 7061 ab3e
000000b0: 91e8 f83d 57ef cc3d 4a85 943d 21f4 bdbe
000000c0: 0709 9f3d e91c ec3b e6d6 bebd db68 b83c
000000d0: c3da 53be a833 4e3c ed61 2dbd a801 033d
000000e0: adc9 93bd 1789 273e 2af1 433e 372e 223e
000000f0: a45b 0f3e 89bd ee3d 3122 1a3e f82a 6cbd
00000100: fdb0 84bd a5e5 3fbb bf12 6fbd fbc1 50be
00000110: 4c71 28be cdc2 12be 7a91 7cbe 418f 7ebe
00000120: ad02 50be 97fb edbb bf5d 9a3c 3768 a6be
00000130: e5fd b4be 8269 b4be 4a0c b1be 63dd e7be
00000140: af1f d2be 3201 0dbe 7627 a63d 7893 77bd
00000150: f976 cdbd 3866 933d 2440 063b 733b 38be
00000160: 3394 30be bc56 6bbe af75 993d 300c a33d
00000170: b78e 5dbd 518f 933a aae8 053d ae1e f33c
00000180: f332 073e dd0e 233d 0898 f9be 24a8 593d
00000190: ef0e 953e c630 aa3d ed4c 783e 5740 cb3e
000001a0: 4c6f 2d3e ab7c 663e 0482 473e 05c7 923d
000001b0: 0fff 153e 4f62 34bd bf65 6b3e ed8e 053e
000001c0: ad86 fa3d 4047 063e 93cf 0c3e 4d23 a23e
000001d0: ec68 143e c753 b139 fb41 02be 3433 6abe
000001e0: da11 2fbe 8d06 89be e380 39be 28f1 34bd
000001f0: 9cfb 57be b9e7 6abe 1575 65bd f500 cabd
00000200: 6387 c6bd 3e2e 6ebd a92e 35be 4df8 85be
00000210: 2333 70be b9a1 31be 32bc ccbd 42d2 9bbd
00000220: 5fb1 92bd 7d09 95bd f1ee c7bd 1782 aebe
00000230: bb43 65be 68e6 d0bd 2cc9 85bc 9761 4b3e
00000240: 1990 0ebe 5c3d 513d 616c c93d 986d 8c3e
00000250: 682a bf3e 2af3 643e 1403 7f3c 5d56 783c
00000260: 3465 51be d399 283e 1c22 7a3d 7b71 4f3d
00000270: dfaa 37bd e009 3c3d 79b4 d6bc 0adf abbe
00000280: 60e1 51bd 1cbd fabd 6166 00bd b6e7 b33d
00000290: 26b3 e23c e4dd babe 6ce2 30be 107a b8bd
000002a0: 6257 0c3e 450d ac3e 8a5b 3e3e 78c1 a33d
000002b0: 30a3 2bbd 455c 97bd a3ba f93d 0df7 7f3d
000002c0: dbf2 0a3d 9c32 1b3e b37c d93d cafb af3d
000002d0: 233f 44be 67c1 d3bd a82a 6dbe cabe 333e
000002e0: fc53 21bd 224c d63c 9efb ae3e 987a 8b3e
000002f0: 3160 8a3e 26a2 9abe e1f8 39be 5600 53bc
00000300: 744a 63bc a67b b8bd db59 71be 6090 74be
00000310: 20c0 0bbe 1e43 25be 99d5 babe a3c0 8bbe
00000320: 3200 a7be 7e25 09be 4982 21bd 3071 40be
00000330: f63a 863d d3e0 bf3d 8b37 02be b898 7a3e
00000340: ee30 593e 326c e03d 6bed 66bd 07d8 5cbc
00000350: cda4 4fbd c309 46be 8772 61be 65d2 98be
00000360: a4bd 163e 4bf0 ae3d d0f8 5f3d fb62 e0bb
00000370: 741e 8c3c f24e 733d 9505 43be 494f cabe
00000380: 2963 e1be a864 bb3d ebc8 38bd 27e2 54bd
00000390: 1b92 0fbd 469a debb 5d14 a6bd cee0 a3be
000003a0: aaaf 78be 01d3 44be 5aff 963e 1b4d 413e
000003b0: 99e3 6a3e ba84 71bd 805f 073d e01f 19bd
000003c0: 8bad 0a3d 1ac4 58bc 6da8 d9be 8675 2fbe
000003d0: 0b87 86be b038 7e3d 8534 e1bc 2a3a c03d
000003e0: c420 8c3e ad68 393e 0449 b33e 6c52 7b3d
000003f0: f8df e6bb 2d3c a13d b772 8ebd 2b9f bfbc
0.06566362 0.14592154 0.13405147 0.14605184 0.1770339 0.021081088 0.23622704 -0.03087311
-0.31640354 -0.12907243 -0.042029314 -0.0118693095 -0.04029316 -0.0077677397 -0.055834282 -0.3851503
-0.096563905 -0.13555588 -0.10731651 -0.16297178 -0.113434054 0.13133562 -0.14867558 -0.03676875
0.37552452 0.12922083 -0.0040774723 -0.06265876 0.078702286 0.121342264 -0.09117776 0.037327226
0.10175076 -0.1333276 0.13671668 0.4064027 -0.20547345 -0.059591223 0.06776567 -0.041714635
0.11882055 0.14357409 -0.010814125 0.33472776 0.121537335 0.10006588 0.07251985 -0.37100318
0.07765394 0.007205595 -0.093183324 0.022510936 -0.2068892 0.012585558 -0.042329717 0.031984
-0.07216201 0.1636089 0.19134966 0.15837942 0.13999802 0.11657245 0.15052105 -0.057658166
-0.0647907 -0.0029281166 -0.058367487 -0.20386498 -0.1644947 -0.14332123 -0.2466487 -0.24859335
-0.2031352 -0.007262658 0.01884353 -0.32501385 -0.35349956 -0.35236746 -0.34579688 -0.45286092
-0.41039798 -0.13769987 0.08112995 -0.06044337 -0.10032458 0.07197231 0.0020485008 -0.17991428
-0.17244034 -0.22982305 0.074931495 0.07961309 -0.05409118 0.0011257922 0.03269259 0.029677715
0.1320303 0.039809097 -0.48748803 0.053138867 0.29112956 0.08310084 0.24248095 0.39697525
0.16936988 0.22508495 0.19483191 0.07166866 0.14648078 -0.044039067 0.22988032 0.13042803
0.122327186 0.13113117 0.13751058 0.31667557 0.1449315 0.0003382249 -0.12720482 -0.22871095
-0.17096654 -0.2676281 -0.18115573 -0.044175297 -0.21092075 -0.22939958 -0.05601986 -0.09863464
-0.09693792 -0.05814957 -0.1769358 -0.26166 -0.23457007 -0.17346849 -0.09996833 -0.07608463
-0.07162737 -0.072772 -0.09762371 -0.34083626 -0.22389118 -0.102001965 -0.016331278 0.19861446
-0.13922156 0.051083907 0.09835125 0.27427363 0.3733704 0.22358385 0.015564699 0.015157309
-0.20448762 0.1646493 0.061067685 0.050645333 -0.04484069 0.045907855 -0.026209103 -0.33568603
-0.051240325 -0.12243101 -0.031347636 0.0878443 0.027673315 -0.36497414 -0.17273873 -0.090076566
0.13705209 0.33603874 0.18589607 0.079958856 -0.041903675 -0.07390646 0.12193801 0.062491465
0.03392301 0.15156025 0.106194876 0.08592947 -0.1916471 -0.10339623 -0.23160803 0.17553249
-0.039386734 0.02615935 0.34176344 0.2724197 0.27026513 -0.30201834 -0.18161346 -0.012878498
-0.0138727315 -0.09007959 -0.23569433 -0.238832 -0.13647509 -0.16138884 -0.36491087 -0.27295408
-0.32617337 -0.13393208 -0.03943089 -0.18793178 0.06554215 0.09369054 -0.127165 0.2447232
0.21210071 0.109581366 -0.056378763 -0.013479239 -0.050694276 -0.19339661 -0.22016345 -0.29848018
0.1472078 0.08541926 0.054680645 -0.006847737 0.017104365 0.05940146 -0.19045098 -0.39513615
-0.44020966 0.09150058 -0.045113485 -0.05197349 -0.035051446 -0.006793293 -0.08109353 -0.3200745
-0.2428576 -0.19221117 0.29491693 0.1887707 0.22938384 -0.05896447 0.03305006 -0.037383914
0.03385691 -0.013230348 -0.4251131 -0.17134675 -0.26274905 0.06206578 -0.027490864 0.09386094
0.27368748 0.18106337 0.35016644 0.0613579 -0.007045742 0.07872806 -0.06955474 -0.023391327

bias f4 [32]
00000000: e445 b63e 5ff6 0fbd fc95 863d d368 bc3e
00000010: 9def cf3d 6344 28bd b2f2 99bd ea2b 14be
00000020: a5b6 3b3e d791 b13e 33e5 63be 34d0 013e
00000030: 6ae5 c23e 2c92 9fbe fda5 1d3e f44a 213f
00000040: fb9f adbd e8e0 163e a5df 6f3e a22d a5bd
00000050: 416a 743e b62c d13d 374d 25be e311 8d3d
00000060: 07a5 863e 11dc 643e 34b9 273e 4afa ac3e
00000070: e133 b13e 329a 6bbe 78fa 3bbe 5cb2 3a3e
0.35600197 -0.035147067 0.06571576 0.36798725 0.101531245 -0.041080844 -0.075169936 -0.14469877
0.18331392 0.3468158 -0.22255401 0.1267708 0.38065654 -0.31166208 0.15395351 0.63004994
-0.084777795 0.14734232 0.23425157 -0.080653444 0.23868658 0.10213606 -0.16142736 0.06888177
0.2629778 0.22349574 0.16379243 0.33784705 0.34609893 -0.2300804 -0.18357265 0.18232101

weight f4 [2, 32, 1, 1]
00000000: 95d4 c4bf 9a7b 88bf 67e6 58bf d33c a9bf
00000010: cf86 5c3d dc45 f13e 0f1f 223f c898 ad3b
00000020: c0f6 8dbd c9e5 223e 934c 0b3f a4ac b63c
00000030: 1414 bb3e 8f86 c1be d26e 9b3d 2715 513f
00000040: 3f97 fcbd bd5d 5a3f c550 59bf 42d7 d8bd
00000050: 737a 903d b86d a93e 9bc5 613f e064 bdbe
00000060: 0689 923f c959 d93e 233a 833f 8d7f af3e
00000070: a8d4 24bf 28f2 84bc cd43 9a3d fb39 77bf
00000080: c763 4a3f bb99 863f 1f17 583f 98a5 663f
00000090: 5085 553e 19b6 e2be a3d9 3bbf fd5d e93c
000000a0: edc4 343d b1ed 55bf ae1f 2dbf 0e9d 0ebd
000000b0: 8600 dfbe 1e15 b93e c2ca 403d c6b5 94bf
000000c0: ea6e 033e d5cf 2dbf 2491 bc3f 3d84 d43d
000000d0: 5e86 923d 35cc d33e 046a 6fbf 6ab2 cb3e
000000e0: e8a5 27bf 003e 0abf 1484 00bf 5154 83be
000000f0: 95a8 343e 7edd 033d 1a2d edbd 826f 833f
-1.5377375 -1.066272 -0.84726566 -1.3221687 0.0538395 0.4712361 0.6332864 0.005297754
-0.069318295 0.15907969 0.5441372 0.022299118 0.36538756 -0.37797973 0.07589497 0.816729
-0.123335354 0.85299283 -0.8488887 -0.10587932 0.07054605 0.3309152 0.88192147 -0.36991024
1.1448066 0.42451313 1.0252117 0.34277 -0.6438699 -0.01622875 0.07532463 -0.96572846
0.790585 1.0515665 0.8441028 0.90096426 0.20851636 -0.44279554 -0.7337896 0.0284872
0.044133116 -0.83565813 -0.67626464 -0.034817748 -0.43555087 0.36148924 0.047068365 -1.1617973
0.12835279 -0.6789525 1.4731793 0.10376785 0.07154535 0.41366735 -0.9352114 0.39784557
-0.6548753 -0.54000854 -0.50201535 -0.25650266 0.17642434 0.032193653 -0.11580868 1.0268404

bias f4 [2]
00000000: 789e 46bc 4a2e 44bb
-0.012122743 -0.0029934817

weight f4 [4, 32, 1, 1]
00000000: edf2 b33c feb9 903c fb8b 58bd b100 fc3c
00000010: 7085 efbd 517d 7d3c 3e3a c0bb 1270 3e3e
00000020: 0c35 02bd 8da7 de3d 604d 4ebc 1814 67bc
00000030: ed79 f5bb 32b3 8cbd ff19 d4bd c0e0 54bc
00000040: 33f2 86be 5e49 99bc e0ff 5e3c aeac 2e3e
00000050: 3000 acbd 9ae2 eb3c 1b79 f7bc 8fa5 5fbb
00000060: e037 88bd defd c5bd ed2f bdbc e9f0 6bbc
00000070: 8368 79be f42b ffbd 01ba f2bb 4104 423d
00000080: 905f 13bc c0d0 373d 0ef4 0cbd 019e 24bc
00000090: 12fb b7be 4a6d 50bd b88d 12bc 83b3 a13c
000000a0: 0bff b3bb e5e5 2b3d 025f a6bd b796 cdbd
000000b0: 4dd9 dcbd 0eb6 dc3b 6778 0fbc 78a9 ebb9
000000c0: d7b9 6b3e 8da7 263d 7f3c a93b 729d 65be
000000d0: a4ae a1be 63d1 8cbd 2c5b 08bd c258 adbd
000000e0: b72b a9bc cc21 47bd bd01 98bc 5eaa 043e
000000f0: ea2b b5bd c46e 9a3e fcce ccbd fbd0 163d
00000100: fd41 0f3b dd7a d0bc 44d6 173c 37c7 df3c
00000110: 18ea d03d cd83 4cbd c089 883c 21d8 d7be
00000120: 5251 a5bb c604 2a3c 2b3f da3d 7f73 b33e
00000130: a84c 93bc a7fe 81bd a4cf a23d 1034 4ebc
00000140: 51e0 763d b2ef 1abd 10bd e9bc 0e3c dbbd
00000150: ebe0 c33d aa0e b03d 74cf 81bc 7b49 443d
00000160: 4e64 a23c ff31 7b3d d2e1 463c 84df 3cbc
00000170: 8e50 9bbc a09e 0b3c 0cf1 243d ada0 23bd
00000180: 2d10 03bc 7f0b d6bc 7610 6e3c 400f 9abc
00000190: 2cc0 10be 8f18 8ebc d716 a83b 89cd c93d
000001a0: 92ef 103d e34d f6bc 4e05 ff3d ff9a 463e
000001b0: ad2b 98bd de24 393d 0054 4c3e 6f9f a63b
000001c0: 18c1 1abe d439 ccbc 9321 60bd 42ce 90bc
000001d0: af74 a4bd 3528 e73c f2af 1e3d 72cc 303e
000001e0: 6cad 2a3c 1592 0d3e f8a5 863c b577 5b3e
000001f0: 1b96 1d3e 1e3e 923d 0d43 85bc 41a9 50bd
0.021966422 0.017666813 -0.05286787 0.030762048 -0.11695373 0.015471772 -0.005866318 0.18597439
-0.03178887 0.108718015 -0.01259169 -0.014103912 -0.0074913413 -0.06870116 -0.10356521 -0.012993038
-0.26356658 -0.018711742 0.01361081 0.1705806 -0.08398473 0.028794575 -0.030209115 -0.003412578
-0.06651282 -0.09667562 -0.023094142 -0.014400699 -0.24356274 -0.12459555 -0.0074074273 0.047367338
-0.008994952 0.044876814 -0.034412436 -0.010047437 -0.3593374 -0.050885476 -0.008944921 0.019738918
-0.00549305 0.04196729 -0.0812359 -0.10038512 -0.10783634 0.00673557 -0.0087567335 -0.00044948957
0.23020111 0.040687133 0.0051646824 -0.22423342 -0.31578553 -0.06875875 -0.033290073 -0.08464195
-0.020650728 -0.048616216 -0.018555516 0.12955615 -0.088462666 0.30162632 -0.10000417 0.036820393
0.00218594 -0.02544921 0.0092673935 0.027316673 0.102009 -0.049930383 0.016667247 -0.4215708
-0.0050450945 0.010377115 0.106565796 0.35049054 -0.017980888 -0.06347399 0.079497606 -0.012585655
0.06027252 -0.037826248 -0.028532535 -0.10704814 0.09564384 0.08596547 -0.015845992 0.04792164
0.01982322 0.061326977 0.012138801 -0.0115279 -0.01895931 0.008521706 0.040268943 -0.039948154
-0.007999462 -0.026128529 0.014530292 -0.0188061 -0.14135808 -0.017345695 0.005129676 0.09853656
0.035384722 -0.030066436 0.12452184 0.19395064 -0.074302055 0.045201175 0.19953918 0.005084924
-0.15112722 -0.024929918 -0.05471952 -0.017676476 -0.08030068 0.028217414 0.038742013 0.1726549
0.010417324 0.13825257 0.016436562 0.21432383 0.15389292 0.07140754 -0.016267324 -0.050942663

bias f4 [4]
00000000: 0007 173e 67b9 f93d 99e8 1bbe cc1e e0bc
0.14748764 0.12193566 -0.15225448 -0.027358435

weight f4 [10, 32, 1, 1]
00000000: 1df6 cb3c 39e9 033c 6c24 cabd 2490 f53b
00000010: 9c6c 03bc feb0 a9bd d6d6 94bb 1eea aebc
00000020: bd88 40bd 4f81 503d c9f3 6dbc 9bdd 36bd
00000030: 30e3 6a3c 5138 a6be 144e 37bc 6dcf 99bb
00000040: d99d 7ebe 1807 6e3c f04b 71bb 6594 80be
00000050: 6f47 c1bc 4fb2 cc3e e7b0 933b 748f 21bd
00000060: 6683 b6bc d718 90bd 01b6 d1bb ffc3 13be
00000070: 4077 94bd 78d5 53bd 9fe9 12bc 9f01 203d
00000080: c6af 073c 8b72 793c 32d2 083d a6f7 f13c
00000090: e640 86bd 2900 83bc 4be4 81bc 0dcc 9cbe
000000a0: e18b 0e3d a582 f5ba 2aca 28bc accd 4abd
000000b0: 2329 ca3d 391e bc3c 1167 7f3e c566 843a
000000c0: 95f7 22bd 91ca dd3b f0a0 b2bb 413c cdba
000000d0: 71d7 93be 31ec 45bd 3bfa a4ba 8102 5b3d
000000e0: 0b28 44bc c5ec 9ebb 70e2 25bd b0f2 c4bd
000000f0: 9560 9d3c 553d aebd 1659 7cbe 887c 663a
00000100: 707b 793c ea73 0abc 05bb d7bd c5d8 8bbc
00000110: 1d97 1b3c b0a7 14be 6ec1 943b 45c1 2a3e
00000120: 215c e6bc b984 cf3b 4c65 62bd 1f66 343e
00000130: 3193 853c 13d1 a6be 7f42 293d 6a06 213b
00000140: 5680 20be 3bef 4cbc ccae 8dbc 05d4 40be
00000150: d206 503d 114b cb3e 9f58 84bc a495 c4bd
00000160: adaa 653a 36f8 013d b85c 163c 5bc1 2b3c
00000170: f3a1 813c f64d 80be d8a1 c73a 60cb 1fbc
00000180: dbca 743c fdbd a13c 73b7 febc 27d6 423c
00000190: 017e 9bbe 2cde 87bc 5f46 a9bc 421e 71be
000001a0: e93d 983e 546b 133c def8 3bbb 2ecb 353c
000001b0: ff11 663d f99a 7f3a 238e cb3c 018a 20bb
000001c0: 86a1 5ebe d4fa b33b 1036 f0ba bcbf e6bd
000001d0: dadb f0bc ca9c 063d 3900 16bc e176 8a3c
000001e0: 8ca3 1c3b 2df0 993b 3468 a1bc 0800 44be
000001f0: e037 65ba f42d e4bd 34ce 73be 6498 dd3b
00000200: 32b4 fd3b b0d3 873c 520d 16be cc82 7cbc
00000210: 362a 133e fa4e 9abd 4181 67bc f8b2 353d
00000220: ab30 49be 3344 30bd 2079 d6bd 61dd f2bd
00000230: 7261 b03d 7e96 e1be dd8b 273e a7cd f03b
00000240: d3da 36be 5a81 0e3d 9391 a1bb 8d93 b5bd
00000250: a0ad 1ebe fa86 0e3f 1b63 513c 1c8c 07be
00000260: d133 14bd 5b86 77bc f50d cfbb 5bcb a538
00000270: 8b87 d73d 246c 22bd 7ca5 05bd e5d6 29bc
00000280: 0837 f3bb b79e b63b 0908 f3ba 7f62 8d3c
00000290: d82d 11be ea88 02bd a77d eebb ea07 813e
000002a0: 359d 623e 5ed6 0abb 0796 d5bc b34d c43d
000002b0: 6aa0 f13d fcc4 bfbc 1720 2f3e 9c03 e53b
000002c0: e84f a93e 8957 d2bb 559f 133c 9d6a 4fbe
000002d0: 2cb8 b4bd c830 dd3a d020 9ebc 2d76 2bbb
000002e0: 9906 04bd cb4a 153d 8c9a 05bc 78e0 593c
000002f0: 3868 703d 655f 2bbf 71e2 58be 87d8 dcbc
00000300: ea8a db3c 5f5b 843c 8d8c debc e254 143d
00000310: 87c2 7f3e 4324 b3bd 6661 373c 326e 9a3c
00000320: 87f9 90be 0cb3 1a3d 8fd8 96bc 14b8 c9bd
00000330: ec17 f13d 2e28 85be 02c4 5d3e ec14 0cbc
00000340: 0543 c5bc ac5f 48bc b083 3bbc 2d8d 92bc
00000350: 598c 85be 31b7 953e 23b5 933c 4111 9dbc
00000360: 5137 2dbd 2d1b 90bd c3d3 04bc a126 d1bc
00000370: b098 87bd 2a25 fb3d e622 78bd 766a 093d
00000380: 3148 733c 3e40 e339 c6df 513d 09b1 013d
00000390: 39a4 46bd 273a d0bd 1461 463c 09e9 6d3d
000003a0: 75e3 ba3d e17f 3abd 955b 1cb7 0015 df3d
000003b0: 63fa 603e db12 6f3c f7c4 963e 2fec d23b
000003c0: 8efd 6d3d 06ae 45bd 9e43 afbc dad2 ea3d
000003d0: ee7f 33be 1111 ceba 9946 86bb 8cb8 8c3c
000003e0: 03d1 aabc 641e c43d 93a7 8ebc 5dae df3d
000003f0: bb3b 983d 8954 a63e c6a9 a5be f236 04bd
0.02489763 0.00805121 -0.09870228 0.0074939895 -0.0080215 -0.08285712 -0.004542212 -0.02135187
-0.047005404 0.05090457 -0.014523455 -0.044644933 0.014336392 -0.3246484 -0.011188049 -0.0046939165
-0.24864902 0.0145280585 -0.0036818944 -0.25113216 -0.023593633 0.3997979 0.0045071724 -0.03944345
-0.022279453 -0.07035988 -0.0063998704 -0.14430235 -0.07249308 -0.05171725 -0.008966832 0.039064046
0.008281654 0.015225063 0.033403583 0.029537033 -0.06555347 -0.015991287 -0.015855929 -0.30624428
0.034801368 -0.0018730952 -0.010302106 -0.04951255 0.098711275 0.02296363 0.2494166 0.0010101428
-0.039786894 0.0067685326 -0.005451314 -0.0015658216 -0.28875306 -0.048320953 -0.0012586782 0.053469185
-0.011972438 -0.0048500025 -0.04049915 -0.096166015 0.019211093 -0.08507792 -0.24643359 0.00087923603
0.015227184 -0.008450488 -0.10533718 -0.017071137 0.009496477 -0.14517093 0.00453966 0.16675289
-0.028120102 0.0063329604 -0.055272385 0.17617081 0.016305538 -0.32581386 0.04132318 0.0024570473
-0.15673956 -0.012508209 -0.017295264 -0.18830879 0.050787754 0.3970571 -0.01615554 -0.09598854
0.00087610894 0.031730853 0.009177379 0.010483111 0.015824294 -0.2505948 0.0015230728 -0.009753078
0.014940943 0.019743914 -0.031093335 0.011891878 -0.3036957 -0.016585432 -0.020663438 -0.23546699
0.29734734 0.008997757 -0.0028682272 0.011095805 0.056169506 0.0009750571 0.02484805 -0.002449632
-0.21741304 0.0054925475 -0.0018326659 -0.11267039 -0.029401708 0.03286437 -0.0091553265 0.016902389
0.0023901192 0.0046978206 -0.019703008 -0.19140637 -0.0008743983 -0.11141577 -0.23809129 0.006762551
0.007742428 0.016580433 -0.14653519 -0.015412044 0.14371571 -0.07534595 -0.014129938 0.04436013
-0.19647472 -0.04303379 -0.104723215 -0.11858631 0.08612336 -0.4406013 0.16361947 0.0073487344
-0.17856912 0.034791328 -0.004930684 -0.08866034 -0.1549592 0.5567471 0.012779976 -0.13237041
-0.03618223 -0.015107716 -0.0063188025 7.905691e-05 0.105239 -0.039653912 -0.03262852 -0.010366176
-0.0074223317 0.0055731195 -0.0018541823 0.01725888 -0.14177644 -0.031868853 -0.0072781625 0.2520135
0.22130282 -0.0021184902 -0.026072515 0.095851324 0.11798175 -0.02340936 0.17102085 0.0069889557
0.33068776 -0.0064191264 0.009010156 -0.20255513 -0.088241905 0.00168755 -0.019302756 -0.0026162968
-0.032232855 0.03644828 -0.008154523 0.013298146 0.05869314 -0.66942436 -0.2118013 -0.026958717
0.026799638 0.01615685 -0.02716663 0.036213763 0.2497655 -0.08747151 0.011192655 0.018851373
-0.28315374 0.03776841 -0.01841381 -0.09849563 0.11772141 -0.26007217 0.21656802 -0.00854991
-0.024079809 -0.012229841 -0.011444971 -0.017889583 -0.2608364 0.29241326 0.018030709 -0.019173266
-0.042289082 -0.07036433 -0.008107129 -0.025531115 -0.0662092 0.12262948 -0.060580157 0.033548795
0.014848755 0.00043344678 0.051238798 0.031662975 -0.04849646 -0.10167342 0.012108106 0.058083568
0.09125415 -0.04553211 -9.319648e-06 0.10892677 0.21970515 0.014591898 0.29447147 0.0064368467
0.058103137 -0.048261665 -0.021394547 0.11465998 -0.1752927 -0.0015721639 -0.0040977714 0.017177843
-0.020851618 0.09576109 -0.01741389 0.10921929 0.07433268 0.3248637 -0.3235609 -0.032278962

bias f4 [10]
00000000: b358 5b3e 27bb 4e3e 5002 1a3f 6d73 4e3e
00000010: d3d0 b33e 5849 ce3e a5f5 5e3e 105f 143f
00000020: af19 1c3f 7f0c 153f
0.21420555 0.2018858 0.6015978 0.20161219 0.35120258 0.40290332 0.21773393 0.57957554
0.6097669 0.5822219
