models/RNet.pth (torch, 425412 bytes, 14 tensors)

weight f4 [28, 3, 3, 3]
0	0x3e7a04f0	0.24415946
1	0x3dc30402	0.09522249
2	0x3d624365	0.055240054
3	0xbda820c0	-0.082093716
4	0x3dabceda	0.08389063
5	0x3b7782e4	0.0037767226
6	0xbe80415d	-0.25049868
7	0xbe2e0b1d	-0.16996427
8	0xbd003285	-0.03129818
9	0x3e80e64e	0.2517571
10	0x3e0f45dc	0.13991493
11	0x3d849e56	0.06475513
12	0xbd59794f	-0.053094205
13	0x3d91d738	0.07121128
14	0x3e7b273f	0.2452669
15	0xbe8b56ce	-0.27214664
16	0xbe63efc0	-0.22259426
17	0xbe3dddba	-0.18541613
18	0x3e483ae7	0.1955372
19	0x3e7c70fb	0.24652474
20	0x3e40042a	0.18751588
21	0xbd74b31d	-0.05974113
22	0x3d931d13	0.0718328
23	0x3e0c72ee	0.13715717
24	0xbed697cd	-0.4191269
25	0xbe780f59	-0.24224605
26	0xbe272898	-0.16324079
27	0xbd98e0b8	-0.07464737
28	0xbc85400b	-0.01626589
29	0x3dbce38a	0.09223087
30	0x3e94b9dc	0.2904805
31	0x3e7ea874	0.24868947
32	0x3de8f171	0.11374176
33	0xbe3362b6	-0.17518124
34	0xbdbf3e1e	-0.0933802
35	0xbdff0e51	-0.124539025
36	0xbe2d3801	-0.16915895
37	0x3c0d66a1	0.008630426
38	0x3d15602d	0.036468673
39	0x3e66b8f8	0.22531497
40	0x3d96c493	0.07361712
41	0x3e231510	0.15926003
42	0xbebe1acb	-0.37129816
43	0xbe6c49dc	-0.2307505
44	0xbe8fe829	-0.28106812
45	0xbd94669a	-0.07246132
46	0xbe3a90ac	-0.1821925
47	0x3d8d35c0	0.068950176
48	0x3e39b573	0.18135624
49	0x3e60b8e0	0.21945524
50	0x3e4c1cb0	0.19932818
51	0xbdac5e80	-0.08416462
52	0xbdd034bf	-0.101663105
53	0xbce88594	-0.028384008
54	0xbe674061	-0.22583152
55	0x3e0f05d7	0.13967071
56	0x3e092313	0.13392286
57	0xbe471046	-0.19439802
58	0xbd62a3d7	-0.05533203
59	0x3e57b136	0.21063694
60	0xbd1c4b7e	-0.038157932
61	0xbdae0bac	-0.0849832
62	0x3de10b5f	0.10988497
63	0xbe7f7b0d	-0.24949284
64	0x3dac75c5	0.084209
65	0x3d99dc75	0.07512752
66	0xbe4c1af3	-0.19932155
67	0xbd803843	-0.06260731
68	0x3e73090c	0.2373392
69	0xbde9446a	-0.11390002
70	0xbe5a6ea8	-0.21331275
71	0x3e2d227a	0.16907683
72	0xbe8075c7	-0.25089857
73	0x3e52b5fb	0.20577233
74	0x3ef6c1d4	0.48194754
75	0xbeb13ffc	-0.3461913
76	0xbd8eac2d	-0.06966434
77	0x3ea246a9	0.31694534
78	0xbe4d51f9	-0.20050801
79	0xbe3fd7b8	-0.18734634
80	0x3e086992	0.13321522
81	0xbc34acc5	-0.01102752
82	0xbe286628	-0.1644522
83	0xbde34f8c	-0.11099157
84	0x3e62b608	0.22139752
85	0x3e83dad2	0.25752884
86	0x3e821660	0.25407696
87	0xbe2c202e	-0.1680915
88	0xbe075f98	-0.1322006
89	0xbddb60be	-0.107118115
90	0xbe1e16aa	-0.15438333
91	0xbe4c66b2	-0.1996105
92	0xbeaf5fc0	-0.3425274
93	0x3e2fe679	0.17177762
94	0x3e8e2423	0.27761945
95	0x3ea56ccc	0.32309568
96	0xbc186daa	-0.00930349
97	0xbe0c61fc	-0.13709253
98	0xbc015778	-0.007894389
99	0xbcea358d	-0.028589988
100	0xbe1ff59f	-0.15621041
101	0xbe77e8c1	-0.24209882
102	0x3e4c15e4	0.19930226
103	0x3ecf13f8	0.40444922
104	0x3edcd6cf	0.43132636
105	0xbe0f38a2	-0.13986447
106	0xbe7ccb71	-0.24686982
107	0xbe50f79f	-0.2040696
108	0x3e8add4a	0.27121955
109	0xbde44f09	-0.11147887
110	0xbea6d38c	-0.32583272
111	0x3e37325f	0.17890309
112	0x3d3f97d5	0.046775658
113	0xbdd8eddf	-0.10592245
114	0x3ca7799f	0.020443736
115	0xbe588206	-0.2114335
116	0xbd5f0a2f	-0.05445307
117	0x3edd352d	0.43204632
118	0xbcee9e94	-0.02912835
119	0xbe8807b3	-0.26568374
120	0x3ebc5da2	0.36790186
121	0xbd9f5db5	-0.07781545
122	0xbd1af33c	-0.037829623
123	0x3e37f3e2	0.17964128
124	0xbdde9bdb	-0.10869571
125	0xbd925740	-0.07145548
126	0x3e6fc574	0.23415166
127	0xbde84aa7	-0.11342364
128	0xbd490d10	-0.049084723
129	0x3e47ca41	0.19510747
130	0xbd9616ea	-0.07328589
131	0xbd2e9cea	-0.042630114
132	0xbdb069ab	-0.086139046
133	0xbe4d2112	-0.20032147
134	0xbd6da946	-0.05802276
135	0x3e48e644	0.1961909
136	0x3e21f6e5	0.15816839
137	0x3e12506a	0.14288488
138	0xbd50d708	-0.05098632
139	0xbcb4af92	-0.022056375
140	0x3defd535	0.11710588
141	0xbe88f5e7	-0.2675011
142	0xbe656839	-0.22403039
143	0xbe0d7bf4	-0.13816816
144	0xbca79e6e	-0.020461287
145	0x3d9ab7ad	0.075545646
146	0x3dc923c1	0.09821273
147	0xbd961c87	-0.0732966
148	0xbdc958f7	-0.09831422
149	0xbe023cce	-0.12718508
150	0xbe9366ad	-0.28789273
151	0xbe3a8752	-0.18215683
152	0xbe889107	-0.26673147
153	0xbdf73a3b	-0.120716535
154	0xbe6a206e	-0.22863933
155	0xbe68b11b	-0.2272381
156	0x3d987a6b	0.074452244
157	0x3decf1a4	0.11569527
158	0x3c4f04d2	0.012635427
159	0x3ed67a25	0.41890064
160	0x3efd62e8	0.49489522
161	0x3e965b08	0.29366326
162	0x3e0b30a8	0.1359278
163	0xbe9ff31b	-0.31240162
164	0x3e2dfa1f	0.16989945
165	0xbcc2cc29	-0.023778992
166	0xbe73fb5c	-0.23826355
167	0x3dffd716	0.12492196
168	0xbe281e67	-0.16417848
169	0xbd078369	-0.033084307
170	0x3d9eaf01	0.07748223
171	0x3d652883	0.055946838
172	0xbe19ad1c	-0.15007442
173	0x3df471c6	0.11935763
174	0x3d62afce	0.05534344
175	0xbe1655db	-0.14681189
176	0x3eac7ecf	0.33690497
177	0xbcbc5ec2	-0.022994403
178	0xbc2c9130	-0.010532662
179	0x3e9a268a	0.30107528
180	0xbdb35d91	-0.08758081
181	0xbea34b99	-0.31893614
182	0xbc58b7a3	-0.013227376
183	0xbe0663df	-0.13124035
184	0xbe855e31	-0.26048425
185	0x3e9da943	0.307932
186	0xbdc07134	-0.09396592
187	0xbcee4c1f	-0.029089032
188	0x3ea3021e	0.31837553
189	0xbdf9cb3d	-0.12196968
190	0xbdb55fd3	-0.08856168
191	0xbe30356c	-0.17207879
192	0xbe5466de	-0.20742366
193	0xbe317e98	-0.17333448
194	0xbdf96926	-0.121782586
195	0xbc05b72c	-0.008161347
196	0xbe0ae450	-0.13563657
197	0xbe3c6d7f	-0.18401144
198	0x3ec12d3a	0.37729818
199	0x3e8bc179	0.27296045
200	0x3eb5d34f	0.35512778
201	0x3eb913a9	0.36147812
202	0x3e4a8c25	0.19780023
203	0x3e82eb5d	0.25570193
204	0x3eaa138b	0.33218035
205	0x3e643fa9	0.2228991
206	0x3ecd0824	0.40045273
207	0xbdd035e3	-0.10166528
208	0xbd9222a4	-0.071355134
209	0xbe2f5867	-0.17123567
210	0xbe26e27c	-0.16297334
211	0xbe3e39d1	-0.18576743
212	0xbd8a2cff	-0.067468636
213	0xbe1fda8e	-0.15610716
214	0xbe887039	-0.2664812
215	0xbe1a0e38	-0.15044487
216	0x3da51aac	0.08061728
217	0x3e07561a	0.13216439
218	0x3d28a203	0.04117013
219	0x3e27e718	0.16396749
220	0x3e3b1161	0.18268348
221	0x3d8be1a4	0.06830147
222	0x3e5a41d8	0.2131418
223	0x3e07f463	0.1327682
224	0x3e8f9f48	0.2805121
225	0xbe606aad	-0.21915694
226	0xbe8367eb	-0.2566522
227	0xbe496e23	-0.1967092
228	0xbe871a05	-0.2638704
229	0xbe2e3168	-0.17011034
230	0xbde9692a	-0.113970116
231	0xbd6ae6dd	-0.057349075
232	0xbe6fc4e0	-0.23414946
233	0xbe2ee84e	-0.17080805
234	0x3e0b24ca	0.13588253
235	0x3e119bb8	0.14219558
236	0x3dc560b4	0.09637585
237	0x3dc07f15	0.09399239
238	0xba8999dd	-0.0010498125
239	0x3b22109d	0.002472914
240	0xbe0cc7e3	-0.13748126
241	0x3de4b1e5	0.11166743
242	0xbde4af56	-0.11166255
243	0xbe0549a1	-0.13016368
244	0xbdc034b3	-0.093850516
245	0x3bb0003a	0.0053711208
246	0xbe663907	-0.22482692
247	0xbd8bba6e	-0.06822668
248	0xbcc43dbf	-0.023955224
249	0x3d7d3167	0.061814692
250	0x3e88b6a5	0.26701847
251	0x3e8f4ba0	0.27987385
252	0xbe3a8662	-0.18215325
253	0xbda8bb6d	-0.08238874
254	0xbd1f5fe6	-0.038909815
255	0xbe809101	-0.2511063

bias f4 [28]
0	0xbd6b2ba5	-0.05741467
1	0xbe17a008	-0.14807141
2	0xbe0737d2	-0.13204888
3	0xbd53f38e	-0.051745944
4	0xbe85adff	-0.2610931
5	0xbe8bf95f	-0.27338693
6	0xbd2888c2	-0.041146047
7	0x3eb72ccc	0.35776365
8	0xbd0beb04	-0.034159675
9	0xbcb098a4	-0.02155716
10	0xbd69e2c9	-0.057101045
11	0xbdf53207	-0.119724326
12	0xbd07ae38	-0.033125132
13	0xbd7ba30e	-0.061434798
14	0xbcd7fa46	-0.026364457
15	0xbd3696be	-0.044577353
16	0xbdd3f9f4	-0.10350409
17	0xbe490916	-0.19632372
18	0xbe08885b	-0.13333265
19	0xbc8ff67c	-0.017573588
20	0xbd9e3f80	-0.077269554
21	0xbc3b908b	-0.011448036
22	0xbe24ceb5	-0.16094477
23	0x3edc82fe	0.4306869
24	0xbc76e2a2	-0.015068682
25	0xbd873edc	-0.06603786
26	0xbd98fadc	-0.07469723
27	0x3c0cf51a	0.008603359

weight f4 [48, 28, 3, 3]
0	0x3ca0e6fd	0.019641394
1	0x3da02d8a	0.07821186
2	0x3d74ed30	0.059796512
3	0xbd660631	-0.05615825
4	0x3c933938	0.01797162
5	0x3de3a48a	0.11115368
6	0x3de1a221	0.11017252
7	0x3de17622	0.1100886
8	0x3a8b0a7b	0.0010607982
9	0x3d97d544	0.07413724
10	0x3d2c68cb	0.042092126
11	0x3dad1836	0.084518835
12	0x3d5a59dd	0.053308357
13	0x3a55e9fd	0.0008160172
14	0x3ca2923f	0.019845126
15	0xbdc76642	-0.09736301
16	0xbd196f24	-0.037459508
17	0xbc8e9589	-0.017405288
18	0x3b88ac3a	0.0041709216
19	0x3cbbca14	0.022923507
20	0x3d295d1d	0.041348565
21	0xbdcfb727	-0.101423554
22	0xbda70b54	-0.081564575
23	0xbd8dc526	-0.06922369
24	0xbd8f9943	-0.07011654
25	0xbe0c65c3	-0.13710694
26	0xbe3ae001	-0.18249513
27	0x3dc94c92	0.09829058
28	0x3d1750ff	0.03694248
29	0x3d5099ef	0.050928053
30	0x3e51cd71	0.20488526
31	0x3e19c191	0.15015246
32	0x3e1bfa15	0.15232117
33	0x3d3f57da	0.04671464
34	0x3dff1656	0.12455432
35	0x3d86bc80	0.06578922
36	0xbe1ad016	-0.15118441
37	0xbd8255bb	-0.06364008
38	0xbd609721	-0.054831628
39	0xbe68f593	-0.22749929
40	0xbe2b83a2	-0.16749433
41	0xbe1c6509	-0.15272917
42	0xbe806ed9	-0.2508457
43	0xbe454502	-0.19264606
44	0xbde7e55a	-0.11323042
45	0xbd33b93d	-0.04387783
46	0xbd2d4fa8	-0.042312294
47	0xbdc30492	-0.09522356
48	0x39db3dc0	0.00041816942
49	0xbc8505f7	-0.016238196
50	0xbd7e6286	-0.062105678
51	0xbe097fa9	-0.13427605
52	0xbe395153	-0.18097429
53	0xbe74e4f6	-0.23915467
54	0xbdbdc6e6	-0.092664525
55	0xbe260158	-0.1621145
56	0x3d90bdcf	0.07067453
57	0xbdb1edd6	-0.08687942
58	0xbe04c146	-0.12964353
59	0x3d443abe	0.047907583
60	0x3b9e531e	0.0048316857
61	0x3d37b94e	0.044854455
62	0xbd5c5cb3	-0.053799342
63	0xbe1025d1	-0.14076926
64	0xbc86cbcd	-0.016454602
65	0xbddf6244	-0.109074146
66	0xbe4a9da8	-0.19786704
67	0xbd9724ab	-0.07380041
68	0x3ab99add	0.0014160533
69	0xbd841f3f	-0.06451272
70	0x3d40d78f	0.047080573
71	0x3def60d2	0.11688389
72	0xbe33388e	-0.17502043
73	0xbe1b01e8	-0.15137446
74	0xbd6525aa	-0.055944122
75	0xbdc6d282	-0.0970812
76	0xbd43460c	-0.047674224
77	0x3d85e969	0.0653866
78	0xbd3b8732	-0.04578323
79	0x3d61ee03	0.055158626
80	0x3e1b9e96	0.15197214
81	0x3d5bcffb	0.053665143
82	0x3d3b4258	0.045717567
83	0x3ded96bb	0.11601015
84	0x3c8ba8ef	0.017048327
85	0x3c1361cd	0.0089954855
86	0x3e2161d3	0.15759973
87	0x3da572ff	0.080785744
88	0xbd5400ac	-0.051758453
89	0x3ddb6af2	0.107137576
90	0x3cba51cb	0.02274408
91	0xbd5a80aa	-0.05334536
92	0xbcd44623	-0.02591235
93	0xbdc1f6f8	-0.09470934
94	0xbd8f3715	-0.06992928
95	0x3dad5b47	0.084646754
96	0xbde95f40	-0.113951206
97	0xbc416c3f	-0.011805593
98	0x3c6a1225	0.014286553
99	0xbd9c7048	-0.076386034
100	0xbd008246	-0.03137424
101	0xbd387f2e	-0.045043163
102	0xbd78dacf	-0.060755547
103	0x3c6e0d63	0.014529559
104	0x3d168312	0.036746092
105	0xbd9246b6	-0.07142393
106	0x3b261643	0.002534286
107	0x3c1427d3	0.009042698
108	0xbd20fdea	-0.03930465
109	0x3d29d173	0.041459512
110	0x3cdfee09	0.027335184
111	0x3d404d3d	0.04694866
112	0xbdb3c955	-0.087786354
113	0xbb1d7830	-0.0024027936
114	0x3da44a6e	0.08022009
115	0x3c91be85	0.017791042
116	0xb9aa2597	-0.00032452933
117	0xbd27dc69	-0.040981684
118	0xbd632393	-0.055453848
119	0x3ca07d1f	0.019590912
120	0xbd8cde23	-0.06878307
121	0xbd9893b0	-0.07450044
122	0xbd73b70d	-0.059500743
123	0x3d46262b	0.048376244
124	0x3d335263	0.043779742
125	0x3cdebc5f	0.027189432
126	0xbcbfb09e	-0.023399647
127	0x3b7fce05	0.003903271
128	0xbd0c51af	-0.034257587
129	0x3c64b63c	0.013959464
130	0x3b949e34	0.004535461
131	0xbca9291c	-0.020649485
132	0x3d0ce0bb	0.034394007
133	0xbc476e80	-0.012172341
134	0xbd30df4d	-0.043181706
135	0x3e23e45f	0.16005085
136	0x3d9a68ab	0.07539495
137	0x3d9b0549	0.075693674
138	0x3d183162	0.03715647
139	0x3e0551e8	0.13019526
140	0x3e037a2a	0.1283957
141	0xbca1f6f5	-0.019771079
142	0xbca03129	-0.019554691
143	0x3d18e95e	0.03733193
144	0x3c3cf6f4	0.011533488
145	0x3d893f1a	0.06701489
146	0x3e0aa39c	0.13538975
147	0xbdc15d6c	-0.09441647
148	0xbd869a11	-0.065723546
149	0x3d5ec268	0.05438462
150	0x3ccc26b7	0.024920804
151	0x3cb05663	0.021525567
152	0xbd58b28c	-0.05290465
153	0xbd45d30c	-0.048296973
154	0xbd625e06	-0.05526545
155	0xbd5793d9	-0.052631233
156	0xbd4c5ecc	-0.049895093
157	0xbd550ffe	-0.052017204
158	0xbd51fa30	-0.051263988
159	0xbc9e6aec	-0.019338094
160	0xbcca1453	-0.024667894
161	0xbd560ea3	-0.052260052
162	0xbd044f6f	-0.032302316
163	0xbd4da41f	-0.050205346
164	0xbc858a52	-0.016301308
165	0xbddd988d	-0.108201124
166	0xbda82d69	-0.08211786
167	0xbd97816f	-0.073977344
168	0xbd35bd3a	-0.044369914
169	0xbd0d136d	-0.034442354
170	0xbaa0c815	-0.001226666
171	0xbe8a4a4b	-0.27009806
172	0xbd75a4c9	-0.059971604
173	0xbcf4afb1	-0.029868932
174	0xbe9fc083	-0.31201562
175	0xbdd3e51e	-0.10346435
176	0x3d176801	0.03696442
177	0xbe8fbc55	-0.28073373
178	0xbe015bf0	-0.12632728
179	0xbdef2532	-0.11677016
180	0x3d827b6b	0.06371196
181	0xbc95acc1	-0.018270852
182	0x3def5f1f	0.11688065
183	0xbe001dc4	-0.12511355
184	0xbc5d6fab	-0.013515393
185	0x3d3f485d	0.04669987
186	0x3d966e59	0.07345266
187	0xbd1ce740	-0.038306475
188	0x3d8e3bdf	0.06945013
189	0x3d122ff1	0.03569025
190	0x3cecaab9	0.02889
191	0xbc71cc5e	-0.014758198
192	0x3dfcc7f5	0.12342826
193	0x3ba9a3ef	0.005177013
194	0x3e113f67	0.14184342
195	0xbdc16493	-0.09443011
196	0x3d4cb354	0.049975708
197	0x3de53a5a	0.1119277
198	0xbd8f16db	-0.06986781
199	0xbd46748f	-0.048451003
200	0xbd9182aa	-0.07105
201	0xbdaf9c83	-0.08574774
202	0xbd8ae7be	-0.067824826
203	0x3d88596f	0.06657683
204	0xbc818730	-0.015811533
205	0xbd78e02b	-0.06076066
206	0x3db2674d	0.08711109
207	0xbe80147e	-0.25015634
208	0xbe239703	-0.15975575
209	0xbd5c81d0	-0.053834736
210	0xbdf4a1c1	-0.119449146
211	0xbd443d33	-0.047909927
212	0xbb67709f	-0.003531493
213	0x3d3781b3	0.044801425
214	0x3d2eaa97	0.042643156
215	0x3e1c1c54	0.15245181
216	0xbe71a5c0	-0.23598385
217	0x3d7248b8	0.05915138
218	0xbccf276e	-0.025287356
219	0xbe9fd7ff	-0.3121948
220	0xbdcec131	-0.10095442
221	0xbe0067d4	-0.12539607
222	0xbeb9de7b	-0.36302552
223	0xbe9878ed	-0.2977976
224	0xbe31c79f	-0.17361306
225	0x3d9c2174	0.07623568
226	0xbd305459	-0.04304919
227	0x3d156da5	0.03648152
228	0xbe5c7483	-0.2152882
229	0xbe1ef2dc	-0.15522331
230	0xbd56fb83	-0.052485954
231	0xbe49c88f	-0.19705413
232	0xbddfd48d	-0.10929213
233	0xbe3180f3	-0.17334346
234	0xbdfee23b	-0.12445494
235	0xbd045428	-0.03230682
236	0xbc06bf7b	-0.008224363
237	0xbd0589e9	-0.032602224
238	0xba62ba1e	-0.00086489494
239	0x3cd8778a	0.026424188
240	0x3d8db151	0.06918586
241	0xbc89fab4	-0.016843177
242	0x3d43bb11	0.047785822
243	0x3e2f680f	0.17129539
244	0x3d15998a	0.03652338
245	0x3de09a3d	0.109669186
246	0x3cf441b8	0.029816493
247	0x3d2eeee8	0.042708308
248	0xbd6937d8	-0.056938022
249	0xbc1fac34	-0.009745646
250	0x3d011a75	0.031519372
251	0xbd06499d	-0.032785047
252	0xbbc57e93	-0.0060270517
253	0xbd21bc21	-0.039486054
254	0x3a069913	0.0005134504
255	0xbc554d64	-0.01301894

bias f4 [48]
0	0xbd14d613	-0.03633697
1	0xbf2e8bfa	-0.6818234
2	0xbe0ecc3e	-0.139451
3	0xbded5110	-0.11587727
4	0xbcaf9d64	-0.021437354
5	0xbe5131b5	-0.20429118
6	0x3e2598bf	0.1617155
7	0xbe2b6ed7	-0.16741501
8	0x3dc1dbfc	0.09465787
9	0xbd8ad020	-0.06777978
10	0xbdfbc225	-0.122928895
11	0x3cf0634f	0.029344229
12	0xbdf095ee	-0.11747347
13	0x3e27d8ae	0.1639125
14	0xbd844527	-0.06458502
15	0xbd7d2503	-0.061802875
16	0x3d956df4	0.072963625
17	0x3ddf1dbc	0.10894343
18	0xbc5bc01f	-0.013412504
19	0xbcdcad92	-0.026938234
20	0x3d97dafd	0.074148156
21	0xbeb10ff3	-0.3458248
22	0xbd3f22ed	-0.046664167
23	0xbd9a1c39	-0.07524914
24	0x3cfb4579	0.030672776
25	0xbe8de461	-0.27713302
26	0x3d8e9c1f	0.069633715
27	0x3d953404	0.07285312
28	0x3d1829fb	0.03714941
29	0xbe564167	-0.20923387
30	0xbdf9021b	-0.12158605
31	0x3db74cb3	0.08950176
32	0xbe0894cf	-0.13338016
33	0x3db8dea5	0.09026841
34	0xbecc4814	-0.3989874
35	0xbe10e94b	-0.14151494
36	0xbdd22254	-0.10260454
37	0xbe40ecab	-0.18840282
38	0xbdf59e42	-0.11993076
39	0x3cd14c22	0.025548998
40	0xbe003a6e	-0.12522289
41	0x3e08eb1b	0.13370936
42	0x3d70011d	0.05859481
43	0xbe7e4d22	-0.24834111
44	0xbc9b5fa6	-0.018966507
45	0xbbe3f0b9	-0.0069561866
46	0xbd710ffe	-0.058853142
47	0x3dd68ab3	0.104756735

weight f4 [64, 48, 2, 2]
0	0xbdee358d	-0.11631308
1	0xbdb9cc51	-0.090721734
2	0x3b85befa	0.004081604
3	0x3d24f8ef	0.040276464
4	0xbe268708	-0.16262448
5	0xbe0b13a7	-0.13581716
6	0x3d54efd8	0.051986545
7	0xbe4feb60	-0.20304632
8	0xbd24e244	-0.040254846
9	0xbe21926c	-0.15778512
10	0xbc8fba32	-0.01754484
11	0xbe21dcc1	-0.15806867
12	0x3d65bb0f	0.056086596
13	0xbb1c32bc	-0.002383395
14	0xbe2e93a2	-0.17048505
15	0xbe0ea084	-0.1392842
16	0xbc397981	-0.011320473
17	0x3c9f1da2	0.01942331
18	0xbe21b2bf	-0.15790842
19	0x3d8d0cb5	0.06887189
20	0x3d4db9ae	0.050225906
21	0xbda12111	-0.07867635
22	0xbd868d46	-0.065699145
23	0xbde8c195	-0.11365048
24	0x3e2b9275	0.16755088
25	0x3db85808	0.09001166
26	0xbd90897a	-0.070574716
27	0x3d77e619	0.060522173
28	0xbd875eb8	-0.06609863
29	0xbcec7e8b	-0.028868934
30	0x3e2d6191	0.1693175
31	0xbe2f485b	-0.17117445
32	0xbdf9d574	-0.12198916
33	0x3e56c6bb	0.20974247
34	0x3d58a0a4	0.052887574
35	0xbda79500	-0.08182716
36	0xbe2d415c	-0.16919464
37	0x3d2c2f0a	0.042037047
38	0x3cf3c415	0.029756585
39	0x3d9799c2	0.07402374
40	0xbddd1f1a	-0.10796948
41	0x3e507483	0.20356946
42	0x3d7c8bce	0.061656766
43	0xbc485223	-0.012226614
44	0xbd14b19d	-0.036302198
45	0xbe8a8186	-0.27051944
46	0xbd706913	-0.058693957
47	0xbe1bf2f3	-0.15229397
48	0x3dc1d3b8	0.0946421
49	0xbe472ee2	-0.19451478
50	0x3e5c3715	0.21505387
51	0x3cc5887a	0.024112929
52	0x3e4abad8	0.19797838
53	0x3d83beca	0.064328745
54	0xbd66c737	-0.05634233
55	0xbec8f237	-0.39247295
56	0xbdc7c6f5	-0.09754745
57	0xbd5df7ef	-0.054191526
58	0xbd3589d2	-0.04432089
59	0x3c7c7237	0.01540809
60	0xbe04447b	-0.12916748
61	0xbde31fac	-0.11090025
62	0x3d9a35f4	0.07529822
63	0x3d81569d	0.06315348
64	0x3e4de019	0.20105018
65	0xbe3f904b	-0.18707387
66	0xbdbf5d29	-0.09343941
67	0x3dc4f19d	0.096163966
68	0xbdbf159d	-0.09330294
69	0x3bb826f3	0.0056198775
70	0x3ca902f3	0.02063129
71	0xbe5f61a2	-0.21814588
72	0x3d77413e	0.060364954
73	0x3d17732d	0.036975075
74	0x3db128be	0.08650349
75	0x3d7c7524	0.06163515
76	0x3d3dc6ec	0.046332285
77	0x3cb2ab64	0.021810241
78	0x3dd0d00f	0.10195934
79	0xbcc41c2c	-0.023939215
80	0x3bb558b6	0.005534257
81	0x3e5c1b71	0.21494843
82	0xbd400d7e	-0.046887867
83	0xbe0bfcde	-0.1367068
84	0xbd29a14f	-0.0414136
85	0xbe702a69	-0.23453678
86	0xbb57a8b0	-0.0032906942
87	0x3d850818	0.064956844
88	0xbd58062d	-0.052740265
89	0x3db24ef5	0.08706466
90	0x3e0bc68b	0.13649957
91	0xbdf910a9	-0.12161381
92	0xbe8cc6f5	-0.27495542
93	0xbe1ee094	-0.15515357
94	0x3d3b8fa3	0.04579128
95	0x3d6f1f0d	0.05837922
96	0xbdf62940	-0.120195866
97	0xbc8d0a30	-0.017216772
98	0x3d1ed52f	0.038777526
99	0x3ceb0be9	0.028692203
100	0xbb449c88	-0.0030000526
101	0x3d6deef3	0.058089208
102	0x3bbc5116	0.005746971
103	0x3d13e474	0.03610654
104	0xbd8c2ec3	-0.068448566
105	0xbcad7bd6	-0.021177214
106	0xbd532803	-0.05155183
107	0xbd192232	-0.037386127
108	0x3dc3c8e8	0.09559804
109	0xbbf8081a	-0.007569325
110	0x3c5862d0	0.0132071525
111	0xbc5efefd	-0.013610599
112	0xbcc51791	-0.024059089
113	0xba179f40	-0.0005783923
114	0xbd1e9bc6	-0.038722776
115	0x3dee2959	0.1162898
116	0x3dbcfa5b	0.09227439
117	0x3bd1869b	0.00639422
118	0xbdb5d45e	-0.088783965
119	0xbdb0eb62	-0.08638646
120	0xbe331759	-0.17489375
121	0xbd0ccb0b	-0.034373324
122	0x3da0a048	0.07843071
123	0xbdb5d39b	-0.08878251
124	0xbdf3489a	-0.11879082
125	0x3d20460a	0.039129294
126	0xbd239cff	-0.039944645
127	0x3c2dd971	0.010610924
128	0x3cdd0303	0.026978975
129	0xbca16e3b	-0.019705882
130	0x3de3ab31	0.111166365
131	0x3d73c45b	0.05951343
132	0xbab8de7c	-0.0014104391
133	0x3e0dc2ac	0.13843793
134	0x3b06ca96	0.0020567528
135	0xbcc36aba	-0.023854602
136	0x3dd85210	0.10562527
137	0x3be43426	0.0069642244
138	0xbd7fbd85	-0.0624366
139	0xbb156252	-0.00227942
140	0xbb2e8a8d	-0.0026632876
141	0x3e2938ec	0.1652562
142	0x3d0e1f28	0.03469768
143	0x3be31152	0.006929555
144	0xbd68e010	-0.056854308
145	0x3d91f609	0.071270056
146	0xbdbdb142	-0.09262325
147	0xbe07e7d1	-0.13272025
148	0x3dd0f369	0.10202677
149	0xbe6a8b3e	-0.22904679
150	0x3c13adcb	0.009013603
151	0x3e37a70d	0.17934819
152	0x3d260153	0.040528607
153	0x3cca43d8	0.024690554
154	0xbe3fc994	-0.1872924
155	0xbcce45f5	-0.025179842
156	0x3d0ee29b	0.034884077
157	0x3e5a608d	0.21325894
158	0xbd9ab51a	-0.07554074
159	0xbdbb2bc0	-0.09139204
160	0x3dd1807e	0.10229586
161	0x3dfd85ed	0.1237906
162	0xbd5ceb47	-0.053935315
163	0xbe157b55	-0.14597829
164	0x3db8bb26	0.09020071
165	0x3cffb2db	0.031213215
166	0xbc285063	-0.010273072
167	0xbb0023c1	-0.001955256
168	0x3dc7b9ea	0.09752257
169	0xbe5c0f14	-0.21490127
170	0x3dc4f9db	0.09617969
171	0xbda11291	-0.078648694
172	0xbe349577	-0.17635141
173	0xbe0f65dd	-0.14003702
174	0x3d84c046	0.06481986
175	0x3d5c47dc	0.053779468
176	0x3e2ba543	0.16762261
177	0xbc85a886	-0.01631571
178	0xbdda790d	-0.1066762
179	0xbccf1ad0	-0.02528134
180	0x3e6b17fa	0.22958365
181	0x3e1d8338	0.15382087
182	0xbe1ea75d	-0.15493532
183	0xbe0db00b	-0.13836686
184	0xbe11bfdb	-0.14233343
185	0xbe873b05	-0.26412216
186	0x3d11370a	0.03545288
187	0xbd9f24f8	-0.07770723
188	0x3da61096	0.08108632
189	0x3e11b398	0.14228666
190	0x3dc8bbff	0.098014824
191	0x3e161a82	0.1465855
192	0xbe8cd30e	-0.27504772
193	0xbce77ef8	-0.028258786
194	0x3e221b8b	0.1583082
195	0xbdb20a33	-0.086933516
196	0xbd142d3e	-0.03617596
197	0xbdb47836	-0.08811991
198	0xbe545564	-0.20735699
199	0xbd8f405d	-0.06994698
200	0xbe408ed4	-0.18804485
201	0xbd28bba3	-0.04119457
202	0xbd3542d1	-0.044253174
203	0x3d3639a8	0.04448858
204	0xbdfb3756	-0.12266414
205	0xbe1222b0	-0.14271045
206	0x3dfaa582	0.12238599
207	0xbcf0a9ff	-0.029377935
208	0xbed844f9	-0.42240122
209	0xbd47cd6b	-0.048779886
210	0x3d0046eb	0.031317633
211	0x3e771bfa	0.24131766
212	0xbd49999a	-0.04921875
213	0x3dc8a38e	0.097968206
214	0x3d30ef60	0.043197036
215	0xbc9c75d0	-0.019099146
216	0x3e7eb8e1	0.24875213
217	0xbc99da93	-0.018780982
218	0xbe7be751	-0.24599959
219	0xbd66ed9e	-0.056378953
220	0xbe6faecb	-0.23406522
221	0x3e0d6cc3	0.1381102
222	0x3d8491e1	0.06473137
223	0xbdd81b97	-0.10552137
224	0xbd1d771c	-0.03844367
225	0x3ed20cf1	0.41025499
226	0xbe38741e	-0.18013045
227	0xbda4c9cf	-0.080463044
228	0x3e1db12e	0.1539962
229	0xbe3b68ef	-0.18301748
230	0x3e312071	0.17297532
231	0xbe46873f	-0.1938753
232	0x3e57c27a	0.2107028
233	0x3ba589f0	0.005051844
234	0xbdf5d52a	-0.120035484
235	0xbe1b9d92	-0.15196827
236	0x3d858341	0.06519175
237	0xbd6d61b0	-0.05795449
238	0xbe7f7762	-0.24947885
239	0x3df8ce00	0.121486664
240	0x3d970568	0.07374078
241	0x3d7c4baa	0.061595596
242	0xbe083642	-0.13301948
243	0xbe0f1fd6	-0.13976988
244	0xbde45144	-0.11148313
245	0xbce04e28	-0.027381018
246	0xbe375899	-0.17904891
247	0x3e7c55f1	0.24642159
248	0xbe53128d	-0.20612545
249	0x3e1c2d89	0.15251745
250	0xbdcec973	-0.10097017
251	0xbe6cf972	-0.23142031
252	0x3dbb69c6	0.09151034
253	0xbdaf4a8a	-0.08559139
254	0x3e023daa	0.12718835
255	0xbe55d551	-0.20882155

bias f4 [64]
0	0x3e0992ae	0.1343486
1	0xbd808d33	-0.062769316
2	0xbe1a0f7e	-0.15044972
3	0x3dcd556e	0.1002606
4	0x3c5b186d	0.013372523
5	0x3ec57376	0.38564652
6	0x3e8a2071	0.26977876
7	0xbc9a721f	-0.018853245
8	0xbcb8c682	-0.022555593
9	0x3dc0d2f5	0.09415237
10	0x3eae6e46	0.34068507
11	0xbe36fd89	-0.17870153
12	0x3d49bc09	0.04925159
13	0x3e05ba7b	0.13059418
14	0x3eb049b8	0.34431243
15	0x3d0cdb45	0.0343888
16	0xbdad8dcc	-0.08474311
17	0xbd3c75cf	-0.04601079
18	0xbe4e8aec	-0.20170182
19	0x3e504e44	0.20342356
20	0x3e47601b	0.19470255
21	0x3e95b1e0	0.2923727
22	0xbbfe7176	-0.0077649904
23	0xbcc6405d	-0.024200613
24	0x3e9110ae	0.28333038
25	0x3de9db55	0.114187874
26	0x3ee6588d	0.44989434
27	0x3e7c9fa0	0.24670267
28	0x3e506226	0.2034994
29	0xbe5405c2	-0.20705321
30	0xbdd26e5c	-0.10274956
31	0xbe03e1b6	-0.1287907
32	0x3de97db9	0.11400933
33	0x3db5594c	0.08854923
34	0x3da80137	0.08203357
35	0xbe0cbdf6	-0.1374434
36	0x3c2a4741	0.010392965
37	0x3e593f63	0.21215586
38	0xbba76091	-0.005107947
39	0xbd874b60	-0.066061735
40	0x3e80dd5f	0.25168893
41	0x3e97e3aa	0.2966588
42	0x3d5d4930	0.054024875
43	0xbe02184d	-0.12704583
44	0xbdafefb9	-0.08590645
45	0x3e6ed5b7	0.23323713
46	0xbab7e0a6	-0.0014028742
47	0xbce66fc0	-0.028129458
48	0x3e821b48	0.2541144
49	0x3e054354	0.13013965
50	0x3dff09c2	0.12453033
51	0x3e1525b3	0.14565162
52	0xbe131ccc	-0.14366454
53	0x3d33d6b6	0.043905936
54	0xbd9c8b87	-0.076438
55	0x3cbbcb5a	0.022924114
56	0xbe0ef357	-0.13960014
57	0x3d95fa05	0.07323078
58	0xbe6daa6a	-0.23209539
59	0x3be08e88	0.0068529285
60	0x3d418508	0.04724601
61	0x3eb56729	0.35430267
62	0x3e359373	0.17732029
63	0xbda98e2b	-0.082790695

weight f4 [128, 576]
0	0xb7ee9357	-2.8440421e-05
1	0x37b3b974	2.1424821e-05
2	0x3855a88b	5.0940125e-05
3	0xb8a76aea	-7.983095e-05
4	0x375d4284	1.3188113e-05
5	0x386f76e8	5.709278e-05
6	0xb8352bde	-4.3194617e-05
7	0xb749f14b	-1.2036714e-05
8	0x378c0386	1.6690941e-05
9	0xb8544498	-5.060862e-05
10	0xb8c84407	-9.549414e-05
11	0xb8be1142	-9.0631205e-05
12	0x380fca34	3.4282173e-05
13	0xb82e28dc	-4.1522886e-05
14	0xb8dccc50	-0.00010528474
15	0x38148fb4	3.5419784e-05
16	0xb85766c0	-5.1355688e-05
17	0xb8e65ac3	-0.0001098416
18	0xb8b54d41	-8.645142e-05
19	0xb7e2c363	-2.7032283e-05
20	0x37926359	1.7450819e-05
21	0xb77aadce	-1.4941628e-05
22	0x38104aad	3.4401823e-05
23	0x3824e896	3.931726e-05
24	0xb7cec12a	-2.4647063e-05
25	0x36954b7a	4.4493327e-06
26	0xb713b48a	-8.803918e-06
27	0x381b6945	3.705292e-05
28	0xb6b36238	-5.34605e-06
29	0x37dde890	2.6453548e-05
30	0x3817d727	3.620158e-05
31	0x36a2cb4d	4.8516436e-06
32	0xb7bc1cc2	-2.2424738e-05
33	0xb810ea84	-3.4550685e-05
34	0xb837925f	-4.376692e-05
35	0x3840867d	4.590162e-05
36	0x38174df8	3.607382e-05
37	0xb80264ec	-3.1088406e-05
38	0xb89becd3	-7.435088e-05
39	0x37890952	1.6336013e-05
40	0x37cd59a1	2.4479641e-05
41	0xb72230a9	-9.667282e-06
42	0x38598087	5.1856532e-05
43	0x38af5bff	8.361786e-05
44	0x38ad330b	8.25879e-05
45	0x381ce54c	3.7406848e-05
46	0x38289b90	4.01992e-05
47	0x37ea94f0	2.7964328e-05
48	0xb803c964	-3.1420393e-05
49	0x3685a0bd	3.9824213e-06
50	0xb7c27723	-2.318208e-05
51	0xb7e08ef9	-2.6769458e-05
52	0xb85e8343	-5.305117e-05
53	0xb8fe0afc	-0.0001211371
54	0x369c3c7d	4.656204e-06
55	0xb89b6061	-7.408928e-05
56	0xb847beab	-4.762287e-05
57	0x38530c9f	5.0318074e-05
58	0xb8e91d5a	-0.00011115773
59	0xb8a270bc	-7.7457604e-05
60	0x38d16fb4	9.986703e-05
61	0x37a5019a	1.9670279e-05
62	0xb772be0d	-1.4468574e-05
63	0x37e6192a	2.7429855e-05
64	0xb7e1e522	-2.6928788e-05
65	0xb8e6a626	-0.00010998202
66	0xb782e548	-1.5603975e-05
67	0xb8191f1c	-3.6507015e-05
68	0x37d9375a	2.5894191e-05
69	0xb878379b	-5.9179594e-05
70	0xb8925703	-6.97803e-05
71	0xb877f58d	-5.9118076e-05
72	0x35a5d9ca	1.2356843e-06
73	0xb899b6d0	-7.32966e-05
74	0x3772fdf8	1.4483456e-05
75	0x38062d96	3.1990545e-05
76	0x37b15f44	2.1144406e-05
77	0xb810b1be	-3.449781e-05
78	0x37e0b104	2.678531e-05
79	0x38bce0f4	9.006439e-05
80	0x380e623f	3.3946937e-05
81	0x37cc01dc	2.431956e-05
82	0xb80b7953	-3.3253174e-05
83	0x36e16162	6.7168594e-06
84	0x3789c4f8	1.6423393e-05
85	0x372f833d	1.0461369e-05
86	0xb8b5a30d	-8.661123e-05
87	0xb7f9d357	-2.9781526e-05
88	0xb856e168	-5.1231502e-05
89	0xb8e2581f	-0.000107929336
90	0xb89f6f95	-7.6024946e-05
91	0x37898661	1.6394248e-05
92	0xb84c62f7	-4.872956e-05
93	0xb828897b	-4.018236e-05
94	0x37bfc690	2.2861437e-05
95	0x390b48a8	0.0001328314
96	0xb89995ba	-7.323497e-05
97	0xb7bd773e	-2.2586082e-05
98	0x38e26f59	0.0001079726
99	0xb88b54da	-6.643841e-05
100	0x390ca8eb	0.00013414367
101	0xb7bb1c6d	-2.2305374e-05
102	0xb8a0a3ba	-7.659891e-05
103	0xb6ee6505	-7.104713e-06
104	0xb770ffcd	-1.4364673e-05
105	0x37e515cf	2.7309083e-05
106	0xb78a7f9a	-1.6510301e-05
107	0xb77a8126	-1.4931231e-05
108	0x3802efeb	3.1217856e-05
109	0x384214ef	4.62727e-05
110	0x37d425e4	2.5290014e-05
111	0xb5ac1297	-1.2820409e-06
112	0x37bd5743	2.257119e-05
113	0x36b9c416	5.536257e-06
114	0x37b6234c	2.1712527e-05
115	0xb69bf3d9	-4.6477476e-06
116	0xb7e59a13	-2.7370674e-05
117	0x3862a1c3	5.403325e-05
118	0x38a2d9e8	7.76535e-05
119	0xb7d7178b	-2.564096e-05
120	0x369d47eb	4.687337e-06
121	0x37afd074	2.0958694e-05
122	0xb8018fca	-3.088991e-05
123	0x38462f35	4.7250844e-05
124	0x36642151	3.399404e-06
125	0xb7fcd8c6	-3.0141684e-05
126	0xb96917cb	-0.00022229475
127	0xb86e4a3a	-5.681275e-05
128	0xb652f7b3	-3.1436618e-06
129	0xb8d71b70	-0.000102571095
130	0x37a3deb3	1.9534817e-05
131	0x389d7872	7.508778e-05
132	0xb878edcc	-5.9349273e-05
133	0xb79b85fb	-1.853983e-05
134	0x378e7cba	1.69858e-05
135	0xb817c94e	-3.6188685e-05
136	0x37979f85	1.8074885e-05
137	0x386dd923	5.6707428e-05
138	0x37ba556c	2.2212706e-05
139	0x382c4928	4.1076128e-05
140	0x3744eda9	1.1737845e-05
141	0x3717528d	9.019522e-06
142	0xb8e7f7de	-0.00011061107
143	0xb95a3656	-0.00020810342
144	0x36369f14	2.721271e-06
145	0xb7825121	-1.5534986e-05
146	0xb83c5b7a	-4.4907887e-05
147	0x385d223a	5.2722382e-05
148	0x38928f22	6.988483e-05
149	0x37b61220	2.170453e-05
150	0x3808e612	3.2639196e-05
151	0x37f57068	2.925862e-05
152	0x3821a7ec	3.854178e-05
153	0xb7cf38d0	-2.4702778e-05
154	0xb8737798	-5.8047095e-05
155	0x384555b3	4.7048274e-05
156	0x37c5505e	2.3521654e-05
157	0xb89c6ba6	-7.458711e-05
158	0x38819ae4	6.18005e-05
159	0xb56c08ce	-8.7929664e-07
160	0xb812dcc8	-3.501473e-05
161	0xb80c704f	-3.3483197e-05
162	0x37d48c07	2.5337575e-05
163	0xb792cc69	-1.7499742e-05
164	0xb729f1c4	-1.0129475e-05
165	0xb7a99164	-2.0214073e-05
166	0xb7e28ee9	-2.7007847e-05
167	0xb88f8e33	-6.845258e-05
168	0x3724ae0f	9.815688e-06
169	0xb6d2954a	-6.2758672e-06
170	0x3697f4f1	4.5286656e-06
171	0x3826bf73	3.9755785e-05
172	0x380e5b81	3.3940658e-05
173	0x38dae007	0.000104367784
174	0x37a7a652	1.99854e-05
175	0x38aa8900	8.13175e-05
176	0x3774e4e8	1.459683e-05
177	0xb7915df4	-1.7329097e-05
178	0x37fa4c9e	2.9838e-05
179	0x3838a33a	4.4021035e-05
180	0x381e80b7	3.779001e-05
181	0x37e58c17	2.7364162e-05
182	0xb7a37f8c	-1.9490508e-05
183	0xb860ef78	-5.3628784e-05
184	0xb7df2e16	-2.6605132e-05
185	0xb72f0fbe	-1.0434478e-05
186	0xb7f0bb04	-2.8697315e-05
187	0xb6920c48	-4.352569e-06
188	0x3799057c	1.8241575e-05
189	0xb894192a	-7.061877e-05
190	0xb856b5b2	-5.1190793e-05
191	0x37aada76	2.0367308e-05
192	0xb838ce86	-4.406136e-05
193	0xb8311a88	-4.2224798e-05
194	0x379bf5b4	1.8591854e-05
195	0xb811e283	-3.478165e-05
196	0xb8753d88	-5.8469857e-05
197	0xb7acc74e	-2.0596806e-05
198	0xb7a7a21e	-1.9983443e-05
199	0x388c1b03	6.6807515e-05
200	0x3833b0a5	4.284144e-05
201	0xb822942e	-3.8761813e-05
202	0x3838b244	4.403504e-05
203	0xb42d3094	-1.6129553e-07
204	0x37911641	1.729571e-05
205	0xb73aa397	-1.1124553e-05
206	0xb7f211b8	-2.8856899e-05
207	0xb8006f7f	-3.0621417e-05
208	0xb80123b3	-3.0789244e-05
209	0x3873865f	5.8060858e-05
210	0xb7ea5550	-2.79347e-05
211	0xb80c463f	-3.3444023e-05
212	0x381efacb	3.7903705e-05
213	0x38f20a93	0.00011541429
214	0x37a368a0	1.9479834e-05
215	0x38a84f1f	8.025602e-05
216	0xb7b922cf	-2.2069928e-05
217	0xb86da0b7	-5.665488e-05
218	0xb750d214	-1.2446679e-05
219	0x37870ba7	1.609868e-05
220	0xb8896432	-6.551332e-05
221	0xb4f818d4	-4.6211665e-07
222	0x37bb37bb	2.2318089e-05
223	0xb38591d2	-6.21982e-08
224	0x38b4673f	8.6023e-05
225	0x389b0de1	7.393561e-05
226	0x377a21bc	1.4909016e-05
227	0x3750e61e	1.2451344e-05
228	0xb7d90ca5	-2.5874304e-05
229	0x37306e8d	1.0516157e-05
230	0xb693d6ec	-4.4059616e-06
231	0xb8a118c6	-7.681693e-05
232	0x3830d475	4.2159536e-05
233	0xb78f0315	-1.7048364e-05
234	0xb7e67479	-2.7472373e-05
235	0x37bf0161	2.2769616e-05
236	0xb832b1f0	-4.2604224e-05
237	0x37d3d116	2.5250523e-05
238	0x3811fb05	3.4804474e-05
239	0x37c91394	2.3970184e-05
240	0x362ebbdf	2.6037376e-06
241	0x380c13b3	3.3396947e-05
242	0x3740ddc0	1.1495722e-05
243	0xb90c7e5c	-0.00013398513
244	0xb9546df4	-0.00020258856
245	0x37a3da3f	1.9532743e-05
246	0xb8fdff0d	-0.00012111487
247	0xb8adea91	-8.292974e-05
248	0x373a8c7f	1.1119176e-05
249	0x392c3a36	0.00016424884
250	0x38bf6d16	9.1279086e-05
251	0x382d24e2	4.1280764e-05
252	0x38fb450b	0.00011981473
253	0xb7f7a201	-2.9520133e-05
254	0xb812cb52	-3.499847e-05
255	0xb7ac5084	-2.054149e-05

bias f4 [128]
0	0x3884bea0	6.329757e-05
1	0xb89d511a	-7.50145e-05
2	0xb8cf2f26	-9.879311e-05
3	0xb8a372b2	-7.793809e-05
4	0xb8bc187a	-8.969098e-05
5	0xb7ca2d1a	-2.4101279e-05
6	0xb8891c62	-6.537956e-05
7	0x388cf14d	6.720666e-05
8	0x3e4b4ce7	0.19853555
9	0xb921e320	-0.00015438767
10	0x3ab1aee7	0.0013556153
11	0x36cc361a	6.085972e-06
12	0xb80ae981	-3.311923e-05
13	0xb74e3a71	-1.2292164e-05
14	0x38cdd50e	9.814846e-05
15	0xb396dacf	-7.0247204e-08
16	0xb708c656	-8.15241e-06
17	0xb8d580a0	-0.0001018059
18	0xb7d45c06	-2.5315221e-05
19	0x3c83e049	0.016098158
20	0xb7e273cb	-2.699522e-05
21	0x3892e899	7.005147e-05
22	0xb88c7e70	-6.699271e-05
23	0x3897819f	7.224385e-05
24	0x3dccb2cc	0.0999504
25	0xb79e441e	-1.8866787e-05
26	0xbc68838f	-0.014191522
27	0x37582b81	1.2884732e-05
28	0xb85ffb22	-5.340123e-05
29	0x38a71b50	7.968268e-05
30	0x38109605	3.4471992e-05
31	0xb8fccc02	-0.00012054296
32	0x3788bbef	1.6299977e-05
33	0x3c94e8a3	0.018177336
34	0xb7160759	-8.9424075e-06
35	0x38b7ee9a	8.770563e-05
36	0xb86d4bf7	-5.657595e-05
37	0x38e0d37f	0.000107205466
38	0x3e4c963a	0.19979182
39	0xb8ae20a1	-8.303044e-05
40	0x3859b408	5.19045e-05
41	0xbb9161da	-0.0044367136
42	0xbdaf6ba9	-0.085654564
43	0xb8b1f8e4	-8.486377e-05
44	0xbd86cf25	-0.065824784
45	0x38397d61	4.4224205e-05
46	0xb89894d8	-7.275649e-05
47	0x3d9933bd	0.074805714
48	0x381f5971	3.7991853e-05
49	0xbe9eceac	-0.31017053
50	0xb7721938	-1.4430196e-05
51	0x3828f4b9	4.0282237e-05
52	0x38112acc	3.461055e-05
53	0x3b1382d3	0.0022508397
54	0x38028b0a	3.1123906e-05
55	0x38987f35	7.271619e-05
56	0x37c10d5a	2.301361e-05
57	0xbd695baa	-0.056972183
58	0xb8324043	-4.2498355e-05
59	0x3872b082	5.7861682e-05
60	0x389a09f8	7.345149e-05
61	0x364b0955	3.025479e-06
62	0xb8710064	-5.745924e-05
63	0xb8777fc0	-5.9008365e-05
64	0xb7865acb	-1.6016324e-05
65	0x38936769	7.028768e-05
66	0xb85408ce	-5.055294e-05
67	0x37a9c616	2.023861e-05
68	0xb6bedbfe	-5.6880517e-06
69	0xb8255f3f	-3.942777e-05
70	0xb7b08f82	-2.1047661e-05
71	0xb920c8f3	-0.00015333648
72	0x385069a7	4.968946e-05
73	0x3803b999	3.1405685e-05
74	0xbb4429b6	-0.0029932088
75	0x36a6c7b5	4.9704345e-06
76	0xb86f892a	-5.7109784e-05
77	0x38c2f4f8	9.29627e-05
78	0xb8e68c99	-0.00010993443
79	0xb8a9c633	-8.0954655e-05
80	0xb7dd26c8	-2.6363312e-05
81	0xb8866c25	-6.4097614e-05
82	0x3776204d	1.4670263e-05
83	0x38b590f4	8.657752e-05
84	0x38c5da4b	9.434352e-05
85	0xb83ee2ef	-4.551088e-05
86	0xb637e5a9	-2.7402805e-06
87	0x38b90a91	8.8234556e-05
88	0xb66c0995	-3.5172318e-06
89	0xb89ba563	-7.4217816e-05
90	0xb78ceba2	-1.6799026e-05
91	0x3819c6ff	3.6663372e-05
92	0xb7d5b66a	-2.5476522e-05
93	0x387e608d	6.064824e-05
94	0x3901787f	0.00012347287
95	0x3d608ce2	0.054821856
96	0xb80a9b65	-3.3046486e-05
97	0xb8528b1e	-5.0197465e-05
98	0xbb3cda9f	-0.0028816832
99	0xb80facde	-3.4254852e-05
100	0x37cff900	2.4792273e-05
101	0xb8661422	-5.4855023e-05
102	0x387bf33c	6.0069593e-05
103	0xb8a82023	-8.01685e-05
104	0x3829d2d6	4.0489096e-05
105	0x388d5779	6.739697e-05
106	0x3812ce69	3.5001347e-05
107	0x387e23e6	6.0591752e-05
108	0x3852d81c	5.026917e-05
109	0x37fe5db4	3.0322793e-05
110	0x37c70587	2.3725222e-05
111	0x38585d5d	5.1585364e-05
112	0xb7fe31a1	-3.030227e-05
113	0x3862daeb	5.4086482e-05
114	0xb8f1a1a5	-0.00011521884
115	0xb82bda37	-4.0972805e-05
116	0xbe5bc901	-0.21463396
117	0xb879367a	-5.941696e-05
118	0x3897dc20	7.2412426e-05
119	0x38b0b1f2	8.425479e-05
120	0x386a0e49	5.580325e-05
121	0x385ca552	5.2606054e-05
122	0x384af797	4.839114e-05
123	0x36b70186	5.4540023e-06
124	0x3332ec76	4.1658915e-08
125	0xb810f8f3	-3.4564127e-05
126	0xb86a4fd7	-5.5864304e-05
127	0x389d686d	7.505794e-05

weight f4 [2, 128]
0	0x35a05188	1.1944658e-06
1	0xb82bff85	-4.1007548e-05
2	0xb6933815	-4.38747e-06
3	0xb8471016	-4.746028e-05
4	0xb8fba39b	-0.000119990866
5	0x36ee1394	7.095232e-06
6	0xb7bb01f5	-2.2293048e-05
7	0x380f64a9	3.4187604e-05
8	0xbcf9d6a0	-0.030497849
9	0xb86ceaf1	-5.648559e-05
10	0xbc90f57c	-0.017695181
11	0xb8a23d45	-7.736174e-05
12	0xb83809ec	-4.387826e-05
13	0xb7998edb	-1.8305544e-05
14	0x377fea25	1.52537e-05
15	0x3780e0ac	1.536341e-05
16	0xb749e051	-1.2032761e-05
17	0xb6fcb381	-7.5310822e-06
18	0xb8c05582	-9.1712005e-05
19	0xbb67e21c	-0.0035382574
20	0x36764122	3.6694769e-06
21	0x38b3d4cb	8.575021e-05
22	0xb82ed7a1	-4.1685653e-05
23	0xb52864ac	-6.2731374e-07
24	0x3c3a330b	0.011364709
25	0x37828f8f	1.5564057e-05
26	0xbe3d5af0	-0.18491721
27	0x37e10066	2.6822276e-05
28	0xb8f7ee0c	-0.000118222175
29	0x3882ca8b	6.2366096e-05
30	0x380f23bc	3.4127137e-05
31	0xb7f84564	-2.9596216e-05
32	0x37a93286	2.0169897e-05
33	0xbc94e062	-0.0181734
34	0xb83b31b4	-4.4630564e-05
35	0x370d4cbe	8.422123e-06
36	0xb83b1a0e	-4.460854e-05
37	0x38a3873e	7.7976365e-05
38	0x3cbfc60a	0.023409862
39	0xb78e7a51	-1.6984677e-05
40	0x38a1b4bd	7.7107434e-05
41	0x3b2868cc	0.002569723
42	0xbf7b976e	-0.9827794
43	0x372f60eb	1.0453378e-05
44	0xbf8d9950	-1.1062412
45	0xb83deb84	-4.5280452e-05
46	0xb731d029	-1.0598488e-05
47	0x3f8fce51	1.1234838
48	0xb86196f6	-5.3784774e-05
49	0x3c818848	0.015812054
50	0x387b65cf	5.993788e-05
51	0x384973ba	4.8029913e-05
52	0x3801db75	3.0960382e-05
53	0x3e39fdd9	0.18163241
54	0xb88a49ba	-6.5940854e-05
55	0x3873497a	5.8004145e-05
56	0xb6f98c17	-7.437087e-06
57	0xbc99df57	-0.018783255
58	0xb5afe292	-1.3104457e-06
59	0x38790c8e	5.937792e-05
60	0x38d2602b	0.00010031493
61	0x389ff530	7.6273805e-05
62	0xb782ad3d	-1.5577878e-05
63	0xb798571d	-1.8160377e-05
64	0xb84d4658	-4.894132e-05
65	0x379d424c	1.874673e-05
66	0xb8b7c652	-8.76306e-05
67	0x38688c3b	5.544371e-05
68	0xb70361f5	-7.831016e-06
69	0xb7d8f444	-2.5862952e-05
70	0x3608c579	2.0380523e-06
71	0xb80d7265	-3.3723558e-05
72	0x390cbd40	0.00013421942
73	0x3847964b	4.758527e-05
74	0xb90e3c3a	-0.00013564611
75	0x381e9249	3.7806374e-05
76	0xb8280042	-4.005456e-05
77	0x38a2f79d	7.7708835e-05
78	0xb7b7c370	-2.1906308e-05
79	0xb8c2bb42	-9.28552e-05
80	0xb86067db	-5.3502485e-05
81	0xb872ecfe	-5.7918012e-05
82	0xb898fc90	-7.294968e-05
83	0x3850a907	4.9748483e-05
84	0x389f5fc2	7.599547e-05
85	0x370dc702	8.45059e-06
86	0x370edee5	8.515756e-06
87	0x37e18082	2.6881931e-05
88	0x3713c944	8.808744e-06
89	0xb8b53334	-8.64029e-05
90	0xb8be6607	-9.07891e-05
91	0x384cf385	4.8864185e-05
92	0x376ed5af	1.42356575e-05
93	0x38ed6df8	0.00011321524
94	0x38ca17c0	9.6365344e-05
95	0xbb5f8d58	-0.0034111347
96	0x384d20df	4.8906422e-05
97	0x37863f66	1.6003567e-05
98	0xbb8db7fb	-0.0043249107
99	0xb7f27c36	-2.8906488e-05
100	0xb82770fa	-3.992112e-05
101	0xb806245e	-3.198196e-05
102	0x38e8c49f	0.000110992456
103	0x376e2f93	1.4196982e-05
104	0xb8b9c20d	-8.857632e-05
105	0x3832d3d4	4.2635787e-05
106	0xb6d96dda	-6.4798924e-06
107	0x36d9b172	6.4877613e-06
108	0x35f40f40	1.8183855e-06
109	0xb7ef44c9	-2.852305e-05
110	0xb7fce65f	-3.0148016e-05
111	0x361731fe	2.2529853e-06
112	0xb7a4bdf0	-1.963877e-05
113	0x37f61d56	2.9339146e-05
114	0xb7e28607	-2.700371e-05
115	0xb83c75bb	-4.4932338e-05
116	0xbedb0e85	-0.42784515
117	0xb7be123c	-2.2658256e-05
118	0xb7396f5c	-1.1052787e-05
119	0x3881ca39	6.188866e-05
120	0x36330185	2.6673963e-06
121	0x38ba8948	8.894742e-05
122	0x38bdc912	9.0496746e-05
123	0xb8138e08	-3.5179808e-05
124	0xb8a4915d	-7.8472054e-05
125	0xb79cc322	-1.8687515e-05
126	0xb8f8af4b	-0.000118582124
127	0x3889926e	6.559944e-05
128	0xb61e9bc7	-2.363451e-06
129	0x384df2cc	4.910193e-05
130	0x37b4a228	2.1533182e-05
131	0x3859a508	5.189053e-05
132	0x3927ed0d	0.0001601467
133	0x374a582b	1.2060666e-05
134	0x381dda50	3.7635036e-05
135	0xb8200660	-3.815291e-05
136	0xbac196e9	-0.0014769706
137	0x387ddae2	6.052375e-05
138	0x3d0423c5	0.032260675
139	0x38b4475c	8.5963606e-05
140	0x380aa8eb	3.305908e-05
141	0x37e8422d	2.768737e-05
142	0xb78688d0	-1.6037753e-05
143	0xb7f2f128	-2.8960945e-05
144	0x387bcfe9	6.0036695e-05
145	0x36a1de25	4.824035e-06
146	0x38906e3f	6.88699e-05
147	0xbb04aeee	-0.0020245868
148	0xb729f8dc	-1.0131127e-05
149	0xb8a0dd1f	-7.6705815e-05
150	0x387b1441	5.9861926e-05
151	0xb7fa3049	-2.9824807e-05
152	0x3c80da7e	0.015729185
153	0xb78722cd	-1.610946e-05
154	0x3e2aa35b	0.16663878
155	0x3624f4c2	2.4580372e-06
156	0x38ab425e	8.166277e-05
157	0xb85c3fdc	-5.251156e-05
158	0xb84908e1	-4.7930404e-05
159	0x3792904b	1.7471748e-05
160	0xb7ff262f	-3.041615e-05
161	0x3cc84f59	0.024451898
162	0x3802d021	3.118825e-05
163	0x3624b471	2.4542935e-06
164	0x3823b300	3.9028935e-05
165	0xb89c1f0a	-7.444441e-05
166	0xbc26a6f6	-0.0101716425
167	0x37761a3f	1.46688535e-05
168	0xb8b3ffa0	-8.582999e-05
169	0xbbe63b8e	-0.0070261424
170	0x3f7b4798	0.9815612
171	0xb6af5453	-5.225223e-06
172	0x3f8cecb9	1.1009742
173	0x38773451	5.8938112e-05
174	0x36e2b087	6.7558753e-06
175	0xbf8ff6c3	-1.1247181
176	0x38929bb1	6.990822e-05
177	0xbcb29455	-0.021799246
178	0xb88293d0	-6.226415e-05
179	0xb60417a6	-1.9683298e-06
180	0xb866b40b	-5.500395e-05
181	0xbe36bc91	-0.1784537
182	0x38b93739	8.8317734e-05
183	0xb869be0d	-5.5728528e-05
184	0xb83d1ea7	-4.508966e-05
185	0x3ca3bedc	0.01998847
186	0x3807803c	3.2305936e-05
187	0xb8ae4da6	-8.31143e-05
188	0xb88d183e	-6.7279194e-05
189	0xb8b28db4	-8.514096e-05
190	0x3817d61d	3.6200614e-05
191	0x3806c865	3.213472e-05
192	0x37d1facc	2.5031528e-05
193	0xb740e8b4	-1.1498272e-05
194	0x38881655	6.489145e-05
195	0xb808d98e	-3.262754e-05
196	0x372ed682	1.0421152e-05
197	0x34d3bf6b	3.9441088e-07
198	0x383310d2	4.269259e-05
199	0x383143cd	4.2263233e-05
200	0xb8d5fc9a	-0.00010203682
201	0xb74a3386	-1.20521345e-05
202	0xbb4c430c	-0.0031167893
203	0xb844d428	-4.6927627e-05
204	0x380c0756	3.3385433e-05
205	0xb8ce4bcf	-9.836966e-05
206	0x388bc411	6.664557e-05
207	0x388daeac	6.755939e-05
208	0x3884d1a0	6.333296e-05
209	0x38d91ccc	0.0001035273
210	0x3896438b	7.165138e-05
211	0xb87c4c40	-6.0152495e-05
212	0x386ad222	5.598565e-05
213	0x3798186e	1.8131188e-05
214	0x3552bd2a	7.8506366e-07
215	0xb7518bf3	-1.2489955e-05
216	0x37c5aaa6	2.3563694e-05
217	0x38c22304	9.257163e-05
218	0x37f5019e	2.9207029e-05
219	0xb7a9f073	-2.0258338e-05
220	0xb8506654	-4.9686365e-05
221	0xb8b239af	-8.498446e-05
222	0xb8d1dd2c	-0.00010007093
223	0xbb1e4a88	-0.002415331
224	0xb8727d41	-5.7813948e-05
225	0x38a25c9a	7.74201e-05
226	0xbc50a801	-0.012735368
227	0x383d021f	4.5063087e-05
228	0x37e1445e	2.6853926e-05
229	0x378e8c12	1.6992944e-05
230	0xb8db5300	-0.00010458194
231	0xb7dad396	-2.6086153e-05
232	0x3880818a	6.127644e-05
233	0xb86f3c55	-5.703823e-05
234	0x383fa263	4.5689183e-05
235	0xb7c0f214	-2.300091e-05
236	0xb79a026c	-1.8359358e-05
237	0x3834f903	4.3147254e-05
238	0x38378b00	4.3760054e-05
239	0xb807f230	-3.2412063e-05
240	0x380f1eec	3.4122655e-05
241	0xb85435a5	-5.05947e-05
242	0x37a54e81	1.9706089e-05
243	0x36f52aed	7.306566e-06
244	0x3ecf25fe	0.40458673
245	0x37b80bda	2.1940028e-05
246	0xb75cc6b7	-1.3159289e-05
247	0xb8885371	-6.5005275e-05
248	0xb82b0ba6	-4.0780425e-05
249	0xb84f31d8	-4.9399066e-05
250	0xb8d5929a	-0.00010183938
251	0x37ecaa09	2.8212571e-05
252	0x386d4087	5.65653e-05
253	0x37b847f1	2.196801e-05
254	0x38992bfa	7.3038e-05
255	0xb8aa8eec	-8.132853e-05

bias f4 [2]
0	0x3de783f8	0.11304468
1	0xbe139ebd	-0.14416023

weight f4 [4, 128]
0	0x36b97f03	5.5282158e-06
1	0xb83d7bbc	-4.5176348e-05
2	0x37269486	9.928952e-06
3	0x373fcde0	1.1432421e-05
4	0x3909b447	0.00013132497
5	0xb86a17a9	-5.5811983e-05
6	0xb759be9e	-1.2978589e-05
7	0x36a7cb16	5.00063e-06
8	0x3d81f216	0.06345002
9	0x34715e24	2.2479122e-07
10	0xbcb86b99	-0.022512244
11	0x3909c693	0.00013139313
12	0xb851555c	-4.990898e-05
13	0x38ae00d0	8.297118e-05
14	0xb729bcfa	-1.01171845e-05
15	0xb927bb4f	-0.00015996139
16	0xb8466774	-4.7303227e-05
17	0xb5de282b	-1.6551979e-06
18	0x3941867e	0.00018456017
19	0xbbc95607	-0.0061442885
20	0xb8b442a8	-8.5954845e-05
21	0xb8e0336f	-0.000106907326
22	0xb837f651	-4.386e-05
23	0x36bc2df3	5.608186e-06
24	0x3d5a0fd0	0.053237736
25	0x384e7eb2	4.923222e-05
26	0xbe145d2f	-0.14488672
27	0x36900518	4.2921274e-06
28	0x382dbabb	4.142032e-05
29	0xb78485ac	-1.5797872e-05
30	0xb78e435d	-1.6959088e-05
31	0x3736c9a8	1.0894997e-05
32	0x3824b71d	3.9271185e-05
33	0x3e0a5d88	0.13512242
34	0x38be5cb9	9.077177e-05
35	0x36fe3a59	7.5765824e-06
36	0xb7c21184	-2.3134759e-05
37	0xb4e1876a	-4.2008043e-07
38	0xbde6ee94	-0.11275974
39	0x376c1eba	1.407385e-05
40	0xb8313434	-4.2248706e-05
41	0xbb42ab02	-0.002970398
42	0x3d5afc7d	0.053463448
43	0x3648208d	2.982127e-06
44	0xbc845b22	-0.016156737
45	0x39213911	0.00015375415
46	0xb8e5ec9e	-0.00010963644
47	0x3d16b311	0.036791865
48	0xb7d01d32	-2.4809127e-05
49	0xbe4704e3	-0.19435458
50	0xb92df112	-0.00016588371
51	0x3845d121	4.7163227e-05
52	0x38600f33	5.3419917e-05
53	0xbdec394b	-0.11534365
54	0x38c2522b	9.265946e-05
55	0x381e1cf6	3.7697107e-05
56	0xb8e7ae6a	-0.000110474255
57	0xbdf32412	-0.11872114
58	0xb7b1e16d	-2.1205016e-05
59	0xb94a8fbd	-0.00019317768
60	0xb7535497	-1.2596275e-05
61	0xb8f5d9d5	-0.00011723085
62	0xb716a03f	-8.978007e-06
63	0xb7ae0d50	-2.0748615e-05
64	0xb7fec2da	-3.0369894e-05
65	0x36a9f990	5.0656454e-06
66	0x37ea654b	2.7942142e-05
67	0xb8f09900	-0.0001147259
68	0x36eabe36	6.995887e-06
69	0xb8195090	-3.6553072e-05
70	0x39299b01	0.0001617484
71	0x3762858b	1.3501743e-05
72	0xb957da5a	-0.0002058534
73	0x38999845	7.323971e-05
74	0xbb6d73a1	-0.003623225
75	0x3876d3ce	5.884823e-05
76	0xb849cb91	-4.811172e-05
77	0x362fc4c6	2.619157e-06
78	0x36d4408a	6.3256057e-06
79	0x36e8b965	6.9357216e-06
80	0x38997200	7.316843e-05
81	0x37b21552	2.1229182e-05
82	0x3939792f	0.00017688119
83	0x382dc1ce	4.142691e-05
84	0xb7346b1d	-1.0753775e-05
85	0xb7dff6cd	-2.6698597e-05
86	0x39042e82	0.00012605826
87	0xb75e672f	-1.3256255e-05
88	0x36c940f3	5.997828e-06
89	0x37940e11	1.7649525e-05
90	0x39006515	0.00012244687
91	0xb9012d76	-0.00012319334
92	0xb8c1d0b3	-9.2418304e-05
93	0xb783ba58	-1.570319e-05
94	0xb837b77b	-4.380148e-05
95	0x3c5a4640	0.013322413
96	0xb908783b	-0.0001301476
97	0x3914bb54	0.00014184165
98	0xbc58c4dd	-0.01323053
99	0xb8850210	-6.3423184e-05
100	0xb8a0ed6a	-7.673616e-05
101	0xb79521d1	-1.7777931e-05
102	0xb941dfc2	-0.0001848927
103	0xb8f32885	-0.0001159469
104	0x3939605f	0.00017678876
105	0x383f5d8a	4.5625064e-05
106	0x39188a4a	0.00014547366
107	0x371b3c7e	9.252804e-06
108	0xb8fd51c7	-0.00012079212
109	0xb8112820	-3.4608063e-05
110	0xb88cddd8	-6.717042e-05
111	0x36dbe3f8	6.5532477e-06
112	0xb8696fce	-5.5655655e-05
113	0x389dcd57	7.524591e-05
114	0x373d2bc6	1.127547e-05
115	0xb81e39df	-3.7724032e-05
116	0x3d7fd4f7	0.06245896
117	0xb694994a	-4.428589e-06
118	0xb7b12b8f	-2.1120328e-05
119	0xb77c02a4	-1.5020985e-05
120	0x36b4c45e	5.387278e-06
121	0xb8307273	-4.206826e-05
122	0xb8fc646b	-0.00012035001
123	0x3890de36	6.907845e-05
124	0x38bc6266	8.982867e-05
125	0xb8c6626d	-9.459709e-05
126	0x37fc93c4	3.010955e-05
127	0xb751b626	-1.24997805e-05
128	0xb70f4c4a	-8.541227e-06
129	0xb7bc4f6c	-2.244833e-05
130	0xb62b73b3	-2.5548331e-06
131	0xb831f452	-4.242763e-05
132	0x394fd653	0.000198209
133	0xb86a3461	-5.583873e-05
134	0xb8683777	-5.5364766e-05
135	0x385bb1fc	5.237943e-05
136	0x3dfb25ac	0.12263045
137	0xb7817401	-1.5432017e-05
138	0xbcc8e8b8	-0.024525031
139	0x38d82fae	0.00010308564
140	0xb83e0a0a	-4.530888e-05
141	0x39115d6d	0.00013863081
142	0x3794be7a	1.7731672e-05
143	0xb903dcb7	-0.00012575356
144	0xb81e71f0	-3.7776248e-05
145	0x37612ed4	1.3421948e-05
146	0x393be20e	0.00017917922
147	0x3b38af50	0.0028180666
148	0xb8aee04c	-8.338745e-05
149	0xb8d58c03	-0.00010182711
150	0x36e8fcc8	6.9435664e-06
151	0x37066fa0	8.013012e-06
152	0x3d527868	0.05138436
153	0x370f4855	8.540305e-06
154	0x3e8359bb	0.25654396
155	0xb8987ba8	-7.2709576e-05
156	0x381b68aa	3.7052356e-05
157	0x38274298	3.9877923e-05
158	0x389ba134	7.4210024e-05
159	0xb7c69ce0	-2.367649e-05
160	0x38868c71	6.415777e-05
161	0xbd5f2220	-0.054475904
162	0x38b02491	8.399145e-05
163	0x3849fa3e	4.815519e-05
164	0xb84fe9da	-4.9570437e-05
165	0x381e3423	3.771869e-05
166	0x3bed206f	0.0072365324
167	0xb890557a	-6.882376e-05
168	0xb7c80fea	-2.3849268e-05
169	0x3b8c138b	0.0042747906
170	0x3d4ad9d8	0.04952416
171	0x35af02bd	1.3039313e-06
172	0xbd842b0e	-0.064535245
173	0x389820f8	7.254066e-05
174	0xb8a2cce6	-7.762927e-05
175	0x3d8081a5	0.06274728
176	0xb8d856fc	-0.00010315885
177	0xbdf58738	-0.119886816
178	0xb919d654	-0.0001467106
179	0x38526373	5.016052e-05
180	0xb7983361	-1.8143737e-05
181	0xbdfa1e96	-0.12212865
182	0x38d7de90	0.000102934544
183	0x37220972	9.658152e-06
184	0xb86ddc6a	-5.671048e-05
185	0xbe20de13	-0.15709715
186	0xb84e26cd	-4.9150363e-05
187	0xb9742223	-0.0002328237
188	0x374b1000	1.2103468e-05
189	0xb8f5e110	-0.000117244315
190	0xb807e46d	-3.2399246e-05
191	0xb8654adb	-5.466757e-05
192	0xb8a0d292	-7.668616e-05
193	0x3748e5f5	1.197447e-05
194	0x36e66697	6.866477e-06
195	0xb8b2c9fd	-8.525325e-05
196	0x388018f3	6.108163e-05
197	0xb86b65db	-5.6123226e-05
198	0x395e12bc	0.00021178549
199	0xb7c6fffd	-2.3722643e-05
200	0xb985dc32	-0.00025531795
201	0x38959445	7.132491e-05
202	0x38e228eb	0.00010784141
203	0xb7f6bfb8	-2.9414761e-05
204	0xb83d84b7	-4.518471e-05
205	0x38020e99	3.100801e-05
206	0xb876d7df	-5.8852016e-05
207	0xb70c8bd5	-8.377207e-06
208	0x382ab799	4.0702147e-05
209	0xb7234750	-9.732161e-06
210	0x39170aad	0.00014404459
211	0x38177766	3.6112404e-05
212	0x3863df39	5.432891e-05
213	0xb86bcbfd	-5.6218345e-05
214	0x38bf3a21	9.118417e-05
215	0x3886df8c	6.431257e-05
216	0x3881cfd9	6.189914e-05
217	0xb583cf5b	-9.820609e-07
218	0x372771a5	9.980436e-06
219	0xb8ba7b94	-8.892189e-05
220	0xb8ddbc64	-0.00010573192
221	0xb81eb139	-3.7835187e-05
222	0xb84fdecf	-4.9560153e-05
223	0xbb82a2fe	-0.0039867153
224	0xb85e08d6	-5.2937154e-05
225	0x38ed4445	0.00011313757
226	0xbc6bed7c	-0.014399882
227	0x37d6e66f	2.5618092e-05
228	0xb843a527	-4.6645433e-05
229	0xb84d2dca	-4.8918453e-05
230	0xb9212214	-0.00015366852
231	0xb88e039c	-6.77176e-05
232	0x36f16976	7.194637e-06
233	0x3578ec70	9.273126e-07
234	0x38e231ff	0.00010785832
235	0x372f9cea	1.0467347e-05
236	0xb900f957	-0.00012299918
237	0xb88bf327	-6.673327e-05
238	0xb79be853	-1.8585624e-05
239	0x37e6f4ba	2.7532096e-05
240	0xb81f6a1f	-3.8007387e-05
241	0x385e8d46	5.3060496e-05
242	0xb78f1309	-1.7055792e-05
243	0xb8927b3a	-6.984775e-05
244	0x3d86af50	0.06576407
245	0xb8116e95	-3.467368e-05
246	0x3899d688	7.335568e-05
247	0x3846cf53	4.7399964e-05
248	0x3896dbbc	7.193486e-05
249	0xb79d99b9	-1.8787441e-05
250	0xb8a7cfb9	-8.001872e-05
251	0xb8f68f3a	-0.00011756872
252	0xb84ad4d5	-4.835877e-05
253	0xb71a29e8	-9.188872e-06
254	0x3854b11d	5.070969e-05
255	0x36bc0746	5.6036833e-06

bias f4 [4]
0	0x3d4ecfa2	0.050490983
1	0x3d2c2c56	0.04203447
2	0xbde722b1	-0.11285914
3	0x3d190efc	0.037367806
